demodulation_comm/qam_cnn_model.pth (torch, 288947 bytes, 20 tensors)

fc1.weight f4 [128, 2]
0	0xbf32cc75	-0.69843227
1	0xbdbe0ccd	-0.09279785
2	0xbdef0b60	-0.116720915
3	0xbf29b004	-0.66284204
4	0xbeb75fce	-0.3581528
5	0x3e73b013	0.23797636
6	0xbf31464f	-0.6924791
7	0x3e40b0ab	0.18817393
8	0xbd64d3df	-0.05586612
9	0x3f2e33fa	0.6804806
10	0xbcb86e55	-0.022513548
11	0x3f844a1d	1.0335118
12	0xbf1a1572	-0.6018897
13	0x3e68b139	0.22723855
14	0xbea456b0	-0.32097387
15	0x3e654b51	0.22392012
16	0xbf40230b	-0.7505347
17	0xbe43f875	-0.19137748
18	0xbed4b8bc	-0.4154719
19	0x3f4b790a	0.79481566
20	0x3e6e2fa4	0.23260361
21	0xbddc73da	-0.107642844
22	0x3fa264f9	1.2687064
23	0x3d0334af	0.032032665
24	0x3eb6bbce	0.3569016
25	0xbeb411a7	-0.35169718
26	0xbecbc980	-0.3980217
27	0x3e128170	0.14307189
28	0xbe0f8d44	-0.14018732
29	0x3dd71859	0.10502691
30	0x3e9af39f	0.30263993
31	0x3dde246c	0.10846791
32	0xbc197125	-0.009365355
33	0x3f163509	0.58674675
34	0xbe6a0202	-0.22852328
35	0x3f2a5cb9	0.66547734
36	0xbda0501f	-0.07827782
37	0x3f33fa0a	0.70303404
38	0x3efdb3c7	0.49551222
39	0xbf267eb4	-0.65037084
40	0xbf4b205e	-0.79346263
41	0xbcc31186	-0.023812067
42	0x3e81597a	0.25263578
43	0xbf21c8f2	-0.63197243
44	0x3e3d3b72	0.18479708
45	0xbda9ff6b	-0.0830067
46	0xbef96bf7	-0.48715183
47	0xbf10efbf	-0.56615824
48	0xbf07e233	-0.5307953
49	0xbf08bfe8	-0.53417826
50	0x3f5e22cf	0.86771864
51	0xbd04952c	-0.032368824
52	0xbec47423	-0.38369855
53	0x3db8dea7	0.090268426
54	0x3eb8bfd1	0.36083844
55	0xbe063281	-0.13105203
56	0xbecd5deb	-0.40110716
57	0xbf05d531	-0.5227843
58	0xbe9528d5	-0.29132715
59	0x3e14c897	0.14529644
60	0xbee67747	-0.45012876
61	0xbf12dcb4	-0.57368016
62	0xbe1a11ea	-0.15045896
63	0xbf051228	-0.5198083
64	0x3f0d36cf	0.55161756
65	0x3e2b46c4	0.16726214
66	0xbeb9ad96	-0.36265248
67	0xbebcef61	-0.36901382
68	0xbf38f72f	-0.7225217
69	0x3d2e152a	0.042500652
70	0x3e0824d1	0.13295294
71	0xbea14f5b	-0.31505856
72	0xbdda14bf	-0.10648488
73	0x3f17ed1f	0.59346193
74	0x3eec0f0d	0.46105233
75	0xbf3d9fbe	-0.7407187
76	0xbe165548	-0.1468097
77	0x3e601e27	0.21886502
78	0x3f45ce93	0.7726833
79	0xbd814efb	-0.063138925
80	0xbdc88381	-0.097907074
81	0xbeaa7283	-0.3329049
82	0xbeab0d59	-0.3340862
83	0x3ed47d7a	0.4150198
84	0x3f300602	0.6875917
85	0x3e30d019	0.17266883
86	0xbeda70b6	-0.42664117
87	0x3f077fae	0.529292
88	0xbf0f13f7	-0.5588984
89	0x3eed2bf7	0.46322605
90	0xbe208570	-0.15675902
91	0xbddad196	-0.106845066
92	0x3e986487	0.29764196
93	0xbf32df78	-0.69872236
94	0x3e81011a	0.25196153
95	0xbe9ef021	-0.3104258
96	0x3f3c70fe	0.7360991
97	0x3eb5392e	0.35395187
98	0xbef33038	-0.47497725
99	0x3eced8e0	0.40399837
100	0x3e307329	0.1723143
101	0xbefb2f5e	-0.49059576
102	0xbef2ebb5	-0.47445455
103	0x3efad32d	0.4898924
104	0x3d3d059c	0.046147928
105	0x3f661a24	0.8988364
106	0xbf254604	-0.6455996
107	0x3d8e74e3	0.06955888
108	0x3dc81b76	0.09770863
109	0xbf0aacc7	-0.5416989
110	0x3f35d0d1	0.71021754
111	0x3c00ef74	0.00786959
112	0x3f08f65c	0.53500915
113	0x3dd6f010	0.10495007
114	0xbef8c920	-0.48590946
115	0xbdcb6aed	-0.09932504
116	0xbe83e39d	-0.25759593
117	0x3e82cdd3	0.25547656
118	0x3eaebea4	0.34129822
119	0x3f3104ce	0.69147956
120	0x3ef877e1	0.4852896
121	0x3df607e5	0.120132245
122	0x3f22155a	0.6331383
123	0xbe577a20	-0.2104268
124	0x3d9f6b00	0.077840805
125	0x3eb94ccf	0.36191413
126	0xbe8288bc	-0.25494945
127	0x3f278db2	0.65450585
128	0x3e7482b9	0.23877992
129	0xbf00db89	-0.50334984
130	0xbecbfde5	-0.39842144
131	0xbf3db8fa	-0.74110377
132	0xbf2461f0	-0.6421194
133	0xbe32fc56	-0.17479071
134	0x3ec68d0f	0.38779494
135	0xbecdb0ba	-0.40173894
136	0x3f7e13cd	0.99248964
137	0xbc930c48	-0.017950192
138	0x3f0e5bca	0.5560881
139	0x3e309d42	0.17247489
140	0x3eb7f136	0.35926217
141	0xbf282344	-0.6567881
142	0xbf409fd8	-0.752439
143	0x398b9901	0.00026626143
144	0x3e1050bc	0.14093298
145	0xbe8de3cd	-0.2771286
146	0xbf36d544	-0.7141917
147	0xbeb5210b	-0.35376772
148	0x3e5993b5	0.21247752
149	0xbe33e2ae	-0.1756694
150	0xbed9444c	-0.4243492
151	0x3ce046a4	0.027377434
152	0xbe4d6d0c	-0.2006113
153	0xbec7c982	-0.39020926
154	0xbf25c697	-0.6475615
155	0xbf01a270	-0.50638485
156	0x3f0978d3	0.5369999
157	0xbec7624b	-0.3894218
158	0x3e4d1cc3	0.20030503
159	0xbf042436	-0.51617754
160	0x3f1bd669	0.6087404
161	0xbe469c98	-0.19395673
162	0x3ee34392	0.4438749
163	0x3f62e738	0.8863406
164	0x3f2bef80	0.67162323
165	0x3dabeb13	0.08394446
166	0xbd3b614c	-0.045747086
167	0x3f1cf120	0.6130543
168	0xbe5d5c46	-0.21617231
169	0x3e7c0ee3	0.24615054
170	0xbc2787f3	-0.010225284
171	0x3ef4f81b	0.4784554
172	0x3f041c9e	0.51606166
173	0xbe9ce2cd	-0.30641785
174	0x3d963cee	0.0733584
175	0xbef047f7	-0.46929905
176	0x3e7f6d2f	0.24943994
177	0x3eb2b762	0.34905535
178	0x3f73bdca	0.9521147
179	0x3b1d4c20	0.0024001673
180	0xbd33d091	-0.043900076
181	0x3f0c70c8	0.5485959
182	0xbec7b35f	-0.39004037
183	0x3e9acc2a	0.3023389
184	0xbe2381df	-0.1596751
185	0x3e122782	0.14272884
186	0xbe403942	-0.18771842
187	0xbf3c96f2	-0.73667824
188	0x3ef1d7cf	0.4723496
189	0x3f211c72	0.6293403
190	0xbda054ff	-0.07828712
191	0x3e74299b	0.23843996
192	0xbf2e3055	-0.680425
193	0xbf333ea7	-0.70017475
194	0x3e2f2e1e	0.17107436
195	0x3f2f6820	0.6851826
196	0x3ed5b2e0	0.41738033
197	0x3f395e99	0.7240997
198	0x3f06f880	0.5272293
199	0xbf2622dc	-0.6489694
200	0xbf3074aa	-0.68928015
201	0x3e1919af	0.14951204
202	0x3f0f5242	0.5598489
203	0x3f32325c	0.6960809
204	0xbea42327	-0.3205807
205	0x3d1bae51	0.038008038
206	0xbecc51c4	-0.39906132
207	0x3e25dcc1	0.16197492
208	0xbea60017	-0.32421944
209	0xbe81c660	-0.2534666
210	0x3f0e1cd0	0.55512714
211	0x3dc945a5	0.09827737
212	0xbf180c3e	-0.5939368
213	0xbedb578d	-0.42840233
214	0x3f19b275	0.6003793
215	0xbea49eb5	-0.32152334
216	0xbeb71fc2	-0.35766417
217	0x3e91a594	0.2844664
218	0x3f11072b	0.5665156
219	0x3d0e3e39	0.03472731
220	0xbe6fadae	-0.23406097
221	0x3e6e25dd	0.23256631
222	0x3d9d57af	0.0768274
223	0xbe24d160	-0.16095495
224	0xbee3d829	-0.44500855
225	0x3e80338c	0.25039327
226	0x3ef3e6fd	0.47637168
227	0x3f3801ff	0.71878046
228	0xbe4068f2	-0.18790033
229	0x3ddb3bac	0.10704741
230	0x3f13328a	0.5749899
231	0x3e2c8834	0.16848832
232	0xbc3c3152	-0.011486368
233	0x3f90062d	1.1251885
234	0x3dbcb9f5	0.09215156
235	0x3f36b3ea	0.7136828
236	0xbef87184	-0.48524106
237	0x3e6844ef	0.22682546
238	0x3f716efb	0.9430997
239	0x3cc42c2a	0.02394684
240	0x3ec65983	0.38740167
241	0xbeeddf62	-0.4645949
242	0x3f0c0079	0.5468822
243	0xbd91ea79	-0.071248
244	0x3f18f935	0.5975526
245	0x3e1485f0	0.14504218
246	0xbf447280	-0.76737213
247	0xbee413f5	-0.44546476
248	0xbef46f80	-0.47741318
249	0x3e22f4b3	0.15913658
250	0xbef58eab	-0.4796041
251	0xbeeba879	-0.46026972
252	0x3e30c38a	0.17262092
253	0xbda36639	-0.07978482
254	0xbe090540	-0.13380909
255	0xbf01daf0	-0.507247

fc1.bias f4 [128]
0	0xbea8dada	-0.3297947
1	0x3d0e2f5c	0.034713134
2	0xbe7014b6	-0.234454
3	0x3dceb6c9	0.10093457
4	0x3d9e0af2	0.077169314
5	0xbdf39fda	-0.11895724
6	0xbf28dc4e	-0.6596116
7	0xbea4377e	-0.32073587
8	0xbebb1485	-0.36539093
9	0xbe7dce95	-0.24785836
10	0xbec574ef	-0.38565776
11	0x3e4b34ad	0.19844313
12	0x3f2c8b50	0.67400074
13	0x3ef728f3	0.4827343
14	0x3efb50ea	0.4908517
15	0x3e38ca63	0.18045954
16	0x3c9248b2	0.01785693
17	0x3f1b273c	0.6060674
18	0x3e97e03e	0.2966327
19	0xbe9965db	-0.29960522
20	0xbf1147df	-0.5675029
21	0xbf33c399	-0.70220333
22	0x3ec981f1	0.3935695
23	0xbf26fa76	-0.65225923
24	0xbe61aeea	-0.2203938
25	0x3d862264	0.06549528
26	0x3ed3cb5f	0.41366097
27	0x3e7c047e	0.24611089
28	0xbde1b778	-0.11021322
29	0x3f2068d8	0.6265998
30	0x3e83f478	0.25772452
31	0xbef70af7	-0.48250553
32	0xbeb23978	-0.3480947
33	0xbcd33164	-0.025780387
34	0x3ea73bdf	0.32662866
35	0x3f00cf2a	0.5031611
36	0x3e85b8b9	0.26117495
37	0x3ee60d57	0.44932052
38	0x3ec99539	0.3937166
39	0x3eda37f7	0.42620823
40	0x3f1d4b4e	0.6144303
41	0xbedfb3fe	-0.4369201
42	0x3f0d410c	0.5517738
43	0x3eafcd02	0.34336096
44	0x3d82e91f	0.063921206
45	0xbebe372b	-0.37151465
46	0xbe2d0359	-0.16895808
47	0x3e620118	0.2207073
48	0xbe6ec7b8	-0.23318374
49	0x3ef21cc1	0.47287562
50	0x3f166949	0.587544
51	0x3cbf9ced	0.023390258
52	0xbe648b5f	-0.22318791
53	0xbdb7023b	-0.08935972
54	0xbed7b67a	-0.42131406
55	0x3edd40e2	0.43213564
56	0x3d8dd542	0.06925441
57	0x3e24c049	0.16088976
58	0xbe94bbba	-0.29049474
59	0xbf14fec7	-0.5820126
60	0x3ed44ec3	0.4146634
61	0x3ec86081	0.39136127
62	0x3ec9215f	0.39283273
63	0x3f2afb01	0.6678925
64	0xbe8ad9b8	-0.2711923
65	0xbdbb3002	-0.09140016
66	0xbeb59763	-0.3546706
67	0x3f06c02e	0.5263699
68	0x3f1b8eda	0.6076485
69	0x3e314508	0.1731149
70	0x3decfe82	0.11571981
71	0xbd3be947	-0.045876767
72	0x3e75c032	0.23999098
73	0xbb222435	-0.002474082
74	0x3e28ac65	0.16472013
75	0x3e5f3fde	0.21801707
76	0xbf340887	-0.7032551
77	0x3eb08773	0.3447834
78	0x3e800750	0.2500558
79	0xbf1ac5fa	-0.6045834
80	0xbebc3006	-0.3675539
81	0xbededeb9	-0.435293
82	0x3eaf993a	0.3429659
83	0xbcde045a	-0.027101684
84	0x3e6a301e	0.22869918
85	0xbf32b608	-0.6980901
86	0x3e78ae72	0.24285296
87	0x3e1463fa	0.14491263
88	0x3eae6ba2	0.34066492
89	0x3e302932	0.17203215
90	0x3e235cf5	0.15953429
91	0xbeb64e13	-0.3560644
92	0xbc9421b4	-0.018082477
93	0xbef3ac98	-0.47592616
94	0xbd0fcf19	-0.035109613
95	0x3ee0cb52	0.4390512
96	0xbd84bb2d	-0.064810134
97	0xbf145e4d	-0.5795639
98	0x3f1290a3	0.5725195
99	0x3e8b4d17	0.27207252
100	0xbe72a384	-0.23695189
101	0xbf13fa78	-0.5780406
102	0xbe26e11d	-0.16296811
103	0xbc77d3a2	-0.015126141
104	0xbf1f8b57	-0.6232199
105	0x3f338bd1	0.7013522
106	0xbf0e99b4	-0.5570328
107	0x3ee41385	0.44546142
108	0xbd1d9b0e	-0.03847795
109	0x3ef6e83b	0.48224053
110	0x3e664c69	0.22490086
111	0xbf0e2194	-0.55519986
112	0x3c4a0654	0.01233061
113	0x3f25d331	0.6477538
114	0x3f296af0	0.661788
115	0x3eb5dacd	0.35518494
116	0x3f0dca97	0.5538725
117	0x3efd54dc	0.49478805
118	0xbe6f3acf	-0.23362277
119	0x3edc039e	0.4297151
120	0xbf068f01	-0.52561957
121	0x3ee84157	0.4536235
122	0xbf086cfb	-0.5329129
123	0x3ccd8be5	0.025091121
124	0xbd580138	-0.052735537
125	0x3e0cf7e6	0.13766441
126	0x3dc2e3e5	0.09516124
127	0xbec07f5f	-0.37597176

bn1.weight f4 [128]
0	0x3f90c416	1.1309841
1	0x3f4571d6	0.77126825
2	0x3f8518dd	1.0398213
3	0x3f8e7710	1.1130085
4	0x3f824205	1.0176398
5	0x3f624c1d	0.8839739
6	0x3f859f3e	1.0439222
7	0x3f81cde7	1.0140961
8	0x3f8cfc02	1.1014407
9	0x3f918a43	1.1370319
10	0x3f5795b4	0.84212804
11	0x3f8e73e2	1.1129115
12	0x3f730b57	0.9493918
13	0x3f86cc52	1.0531104
14	0x3f8bf204	1.0933232
15	0x3f2fac33	0.6862213
16	0x3f74a349	0.95561653
17	0x3f8eabfa	1.1146233
18	0x3f8774ea	1.0582554
19	0x3f84e0b6	1.0381076
20	0x3f89ca3b	1.0764841
21	0x3f7258c2	0.94666684
22	0x3f568285	0.83792907
23	0x3f7f4cb8	0.9972644
24	0x3f8545d5	1.0411936
25	0x3f5c8ee3	0.8615553
26	0x3f83b018	1.0288115
27	0x3f58a6ac	0.8462932
28	0x3f6df0d2	0.9294559
29	0x3f8f6fd8	1.1206007
30	0x3f80f48a	1.0074627
31	0x3f3f3fc8	0.747067
32	0x3f47e215	0.7807935
33	0x3f63554d	0.88802034
34	0x3f7f7a9e	0.99796474
35	0x3f6387bc	0.8887899
36	0x3f88b87e	1.0681303
37	0x3f4cfe32	0.8007537
38	0x3f82d0f3	1.0220016
39	0x3f53b8a3	0.8270361
40	0x3f4ed8e5	0.80799705
41	0x3f8bc638	1.0919867
42	0x3f6504a9	0.89460236
43	0x3f94b486	1.1617591
44	0x3fb331e2	1.3999598
45	0x3f40c13b	0.75294846
46	0x3f8b21f7	1.086974
47	0x3f51a447	0.8189129
48	0x3f487daa	0.7831675
49	0x3f9815e1	1.1881677
50	0x3f676f31	0.9040404
51	0x3fadcbbe	1.3577802
52	0x3f737a89	0.9510885
53	0x3f9c210c	1.2197585
54	0x3f6b357d	0.9187849
55	0x3f595c72	0.84906685
56	0x3f60233b	0.8755376
57	0x3f5441e7	0.8291306
58	0x3f95763b	1.1676706
59	0x3f4a5f65	0.7905181
60	0x3f2909d5	0.6603063
61	0x3f692a4a	0.91080153
62	0x3f73dd9f	0.9526004
63	0x3f95e55a	1.1710618
64	0x3f66bceb	0.90132016
65	0x3f2b42d2	0.66898835
66	0x3f77e060	0.96826744
67	0x3f73ece5	0.9528335
68	0x3f46a273	0.7759163
69	0x3f317cd0	0.69331074
70	0x3f6ef66f	0.9334478
71	0x3f7d88c3	0.99036807
72	0x3f56c410	0.8389292
73	0x3f726432	0.94684136
74	0x3f8f37e1	1.1188928
75	0x3f8a8495	1.0821711
76	0x3f7b004a	0.98047316
77	0x3f5b1c3e	0.8558997
78	0x3f5a323e	0.85232913
79	0x3f56e677	0.8394541
80	0x3f8b0577	1.0861043
81	0x3f54f7b5	0.8319047
82	0x3f4fe3a8	0.8120675
83	0x3f8cd520	1.100254
84	0x3f9efc3b	1.2420725
85	0x3f83f938	1.031043
86	0x3f7dba25	0.9911216
87	0x3f7ac150	0.9795122
88	0x3f58c62f	0.84677404
89	0x3f6823da	0.90679705
90	0x3f976d41	1.1830217
91	0x3f8d2ecb	1.1029905
92	0x3f9c1f55	1.2197062
93	0x3f5f7e7e	0.87302387
94	0x3f49bf33	0.7880737
95	0x3f94951b	1.1608003
96	0x3f713fb8	0.9423785
97	0x3f3445b6	0.7041887
98	0x3f5aebce	0.8551606
99	0x3f7dae2d	0.99093896
100	0x3f84716b	1.0347112
101	0x3f5ec6bb	0.8702199
102	0x3f878570	1.0587597
103	0x3f7dc801	0.99133307
104	0x3f62908f	0.8850183
105	0x3f5d60e9	0.86476
106	0x3f6198e9	0.8812395
107	0x3f5b6209	0.85696465
108	0x3f84b205	1.0366827
109	0x3f579771	0.84215456
110	0x3f847b13	1.0350059
111	0x3f7fd689	0.9993673
112	0x3f919655	1.1374003
113	0x3f459b9f	0.77190584
114	0x3f8a1942	1.0788958
115	0x3f3fb081	0.748787
116	0x3f632df2	0.8874198
117	0x3f82f9b8	1.0232458
118	0x3fa7a5b1	1.309744
119	0x3f43a0e7	0.7641739
120	0x3f8b6f1e	1.0893285
121	0x3f81277d	1.0090176
122	0x3f4f0faf	0.80883306
123	0x3f4da06c	0.8032291
124	0x3f9dd68c	1.23311
125	0x3f873df2	1.0565779
126	0x3f388731	0.72081286
127	0x3f5e50b6	0.86841905

bn1.bias f4 [128]
0	0xbe40b1bc	-0.188178
1	0xbd5cc556	-0.05389913
2	0xbf1d5e28	-0.61471796
3	0xbe9a5606	-0.30143756
4	0xbe87370b	-0.26409182
5	0xbeb43b74	-0.3520161
6	0xbeda0d8e	-0.42588466
7	0xbf026125	-0.5092948
8	0xbdfb1770	-0.1226033
9	0xbed5e1c4	-0.41773808
10	0xbecf9543	-0.40543565
11	0xbd2f9748	-0.042868882
12	0xbe2ca779	-0.16860761
13	0xbea9ccb8	-0.33164
14	0xbe8f74cf	-0.28018805
15	0xbc8b9700	-0.017039776
16	0xbea1880a	-0.31549102
17	0xbeb582fd	-0.354515
18	0xbeb872f1	-0.36025193
19	0xbe51e131	-0.2049606
20	0xbeb40a2d	-0.35164014
21	0xbe6040c2	-0.21899703
22	0xbee0d15c	-0.4390973
23	0xbe4b6b25	-0.19865091
24	0xbda98083	-0.08276465
25	0xbe5db03b	-0.21649258
26	0xbe8a7f52	-0.27050263
27	0xbeaee0ea	-0.3415597
28	0xbe02f23d	-0.12787719
29	0xbeb11082	-0.34582907
30	0xbdf93626	-0.12168531
31	0xbe67019d	-0.22559209
32	0xbe0c38ff	-0.13693617
33	0xbe1e2d15	-0.15446885
34	0xbead1677	-0.33806202
35	0xbe8435ca	-0.25822288
36	0xbe93aa7f	-0.28841016
37	0xbe7916a3	-0.24325041
38	0xbf1e75e3	-0.6189863
39	0xbe8f73da	-0.28018075
40	0xbe91c7f9	-0.2847288
41	0xbeb2bced	-0.34909764
42	0xbc5c1323	-0.013432297
43	0xbeffa226	-0.49928397
44	0xbe48719c	-0.19574589
45	0xbe1f5987	-0.15561496
46	0xbe5d535f	-0.21613835
47	0xbe89141b	-0.26773152
48	0xbca784b8	-0.020449027
49	0xbecf7a5c	-0.4052304
50	0xbe91e3be	-0.28494066
51	0xbe722229	-0.23645844
52	0xbe397738	-0.18111885
53	0xbe81a563	-0.25321493
54	0x3cdab64c	0.026698254
55	0xbe995403	-0.29946908
56	0xbe2e0bf8	-0.16996753
57	0xbda2ca3a	-0.07948728
58	0xbeb40d80	-0.3516655
59	0xbdf804bc	-0.12110278
60	0xbe264091	-0.16235568
61	0xbe91920c	-0.28431737
62	0xbe5ab0da	-0.21356526
63	0xbef1a0b8	-0.4719293
64	0xbe804e66	-0.25059813
65	0xbe972a51	-0.29524472
66	0xbe3689d4	-0.17826015
67	0xbe399d80	-0.18126488
68	0xbe9559e3	-0.2917014
69	0xbdf4ce42	-0.11953403
70	0xbdf0a025	-0.11749295
71	0xbed2e221	-0.41188148
72	0xbe22f3c2	-0.15913299
73	0xbe541604	-0.20711523
74	0xbe12b5d9	-0.14327182
75	0xbe8f9ae2	-0.28047854
76	0xbe41089b	-0.18850939
77	0xbeab222a	-0.33424503
78	0xbd71c013	-0.059021067
79	0xbe6bd1f8	-0.23029315
80	0xbe49ec70	-0.197191
81	0xbdccae47	-0.09994178
82	0xbe2f7f6a	-0.17138448
83	0xbecdc7d1	-0.4019151
84	0xbef42eb2	-0.47691876
85	0xbea77116	-0.32703465
86	0xbeaa355f	-0.33243844
87	0x3d84db9c	0.064872
88	0xbe130ec9	-0.14361109
89	0xbe59d5d7	-0.2127298
90	0xbe8fe940	-0.28107643
91	0xbee6b4e9	-0.45059898
92	0xbec95bc3	-0.3932782
93	0xbe132f62	-0.14373544
94	0xbe162cbf	-0.14665507
95	0xbec8f883	-0.392521
96	0xbdecdfe5	-0.11566142
97	0xbe3b1b1d	-0.18272062
98	0xbdb57c23	-0.08861568
99	0xbd3399d1	-0.043847863
100	0xbed4f1e0	-0.41590786
101	0xbc88727a	-0.01665615
102	0xbec79415	-0.38980165
103	0xbe3e44a5	-0.18580873
104	0xbe43c5d9	-0.19118442
105	0xbe735e52	-0.23766449
106	0xbe337a5d	-0.17527147
107	0xbea13074	-0.3148228
108	0xbefee6e6	-0.49785537
109	0xbde9cd70	-0.11416137
110	0xbdc5c926	-0.09657507
111	0xbe638dc3	-0.22222047
112	0xbea45c97	-0.3210189
113	0xbe6b3aa4	-0.22971588
114	0xbebeb43b	-0.3724688
115	0xbdfb2a9b	-0.12263986
116	0xbeb5cebb	-0.35509285
117	0xbe3a320d	-0.18183155
118	0xbe9e4af9	-0.30916575
119	0xbec3f280	-0.3827095
120	0xbe142492	-0.14467075
121	0xbe496df3	-0.19670849
122	0xbe4720e2	-0.19446138
123	0xbe840905	-0.2578813
124	0xbe6571a4	-0.22406632
125	0xbe3ea87d	-0.1861896
126	0xbed12fba	-0.40856725
127	0xbe1704ed	-0.14747973

bn1.running_mean f4 [128]
0	0xbea62fc2	-0.3245831
1	0x3d5c5403	0.053791057
2	0xbe759551	-0.23982741
3	0x3dc93be3	0.098258756
4	0x3d6e9e64	0.05825652
5	0xbe17766d	-0.1479127
6	0xbf29ec3c	-0.6637609
7	0xbea6d6ac	-0.32585657
8	0xbeb6e56a	-0.35721904
9	0xbe89939a	-0.26870424
10	0xbec45948	-0.38349366
11	0x3e45696f	0.19278501
12	0x3f2ebe0d	0.68258744
13	0x3ef5dd29	0.48020294
14	0x3efa0df0	0.48838758
15	0x3e347ba3	0.17625289
16	0x3ab616c0	0.0013892278
17	0x3f169314	0.58818173
18	0x3e8de754	0.27715552
19	0xbe90f8f1	-0.28314927
20	0xbf105d0d	-0.56391984
21	0xbf2f71e6	-0.6853317
22	0x3eca5aad	0.39522305
23	0xbf22716c	-0.6345432
24	0xbe504a83	-0.20340924
25	0x3d816e63	0.06319883
26	0x3ed33df5	0.41258207
27	0x3e7e6e25	0.24846704
28	0xbdc09668	-0.09403688
29	0x3f1fa42f	0.623599
30	0x3e8d0fdd	0.27551165
31	0xbeef45cd	-0.4673294
32	0xbeb5afc2	-0.35485655
33	0xbc6695c1	-0.01407379
34	0x3ea80399	0.32815245
35	0x3f02f693	0.5115749
36	0x3e7ab8b6	0.24484524
37	0x3eefd7bf	0.4684429
38	0x3ec6ab2e	0.38802475
39	0x3ed9ac5a	0.42514306
40	0x3f1fc8d6	0.62415826
41	0xbee50e21	-0.44737342
42	0x3f0b5a4a	0.54434645
43	0x3ea8fee5	0.3300697
44	0x3d58e10a	0.05294899
45	0xbebc60ce	-0.36792606
46	0xbe1a0465	-0.15040739
47	0x3e6a0294	0.22852546
48	0xbe7bcc44	-0.2458964
49	0x3eed2f32	0.4632507
50	0x3f19c8ff	0.6007232
51	0x3c39db7b	0.011343832
52	0xbe7e9972	-0.24863222
53	0xbdb60bf4	-0.08888999
54	0xbed017f8	-0.40643287
55	0x3edbc806	0.42926043
56	0x3d83adae	0.06429611
57	0x3e2974ea	0.16548505
58	0xbe97edb6	-0.29673547
59	0xbf1a4abc	-0.60270286
60	0x3ed1a4a4	0.40945923
61	0x3eca34a0	0.39493275
62	0x3ec3c602	0.38237005
63	0x3f26816c	0.6504123
64	0xbe840b85	-0.2579004
65	0xbd8d6b6f	-0.06905257
66	0xbeb1d942	-0.34736067
67	0x3f09466c	0.5362308
68	0x3f1abde0	0.60445976
69	0x3e2a2bfe	0.16618344
70	0x3e080cb6	0.13286099
71	0xbd306907	-0.043068912
72	0x3e7d3ee9	0.2473103
73	0x3c25ee4a	0.010127613
74	0x3e2cf3b3	0.16889839
75	0x3e60256f	0.2188928
76	0xbf3107cb	-0.69152516
77	0x3eb90ae2	0.36141115
78	0x3e849d43	0.2590123
79	0xbf173e32	-0.5907928
80	0xbeba8a49	-0.36433628
81	0xbeec77d2	-0.46185166
82	0x3ead19ac	0.3380865
83	0xbd34ff36	-0.0441887
84	0x3e63e4de	0.22255275
85	0xbf362660	-0.71152306
86	0x3e7f8ff4	0.24957258
87	0x3e21a4d8	0.15785539
88	0x3ea8ebe7	0.3299248
89	0x3e2c77d9	0.16842593
90	0x3e13b866	0.14425811
91	0xbeb9ea38	-0.36311507
92	0xbcb02074	-0.02149985
93	0xbee8b572	-0.45450932
94	0xbd5f71dd	-0.054551948
95	0x3edd7e89	0.432606
96	0xbd2e8bf4	-0.04261394
97	0xbf197600	-0.5994568
98	0x3f0cf3cb	0.550595
99	0x3e93a5a1	0.28837302
100	0xbe745075	-0.23858817
101	0xbf19853b	-0.5996892
102	0xbe26bcc5	-0.16282947
103	0xbc9522ae	-0.018205013
104	0xbf1d6a74	-0.6149056
105	0x3f324d7e	0.69649494
106	0xbf0af427	-0.54278797
107	0x3ee7904a	0.4522727
108	0xbd3903f8	-0.0451698
109	0x3ef55250	0.47914362
110	0x3e607a50	0.21921659
111	0xbf0d0c03	-0.55096453
112	0x3be3cecb	0.006952142
113	0x3f20332f	0.625781
114	0x3f28d226	0.6594566
115	0x3eb25298	0.3482864
116	0x3f05b5be	0.5223044
117	0x3ef2e01b	0.47436604
118	0xbe73e743	-0.23818688
119	0x3ed9e0a8	0.42554212
120	0xbf039518	-0.51399374
121	0x3ee83d8b	0.45359454
122	0xbf0a0aa2	-0.53922474
123	0x3d25bde5	0.0404643
124	0xbd62f4dc	-0.055409297
125	0x3e1c0aaa	0.15238443
126	0x3dc63e2e	0.096798286
127	0xbeb8f10f	-0.36121413

bn1.running_var f4 [128]
0	0x3e78ce71	0.24297501
1	0x3e726c6b	0.2367417
2	0x3dbb6ae1	0.09151245
3	0x3e804da6	0.2505924
4	0x3e78edd7	0.24309479
5	0x3f0efa65	0.5585082
6	0x3e4f201e	0.20227095
7	0x3d9b6de0	0.07589316
8	0x3e973d36	0.29538888
9	0x3ed2620b	0.41090426
10	0x3d040660	0.032232642
11	0x3f4888ec	0.78333926
12	0x3e00c0ac	0.12573498
13	0x3db2da3e	0.08733033
14	0x3c799f25	0.015235697
15	0x3d505dc1	0.05087066
16	0x3e3807c3	0.17971711
17	0x3e82ada2	0.25523096
18	0x3e8558a5	0.26044193
19	0x3ead18ff	0.33808133
20	0x3e9e6cf4	0.309425
21	0x3e739db4	0.23790628
22	0x3ca4e652	0.020129357
23	0x3e920771	0.28521302
24	0x3e93c6df	0.28862664
25	0x3ebca969	0.36848
26	0x3d9a5f91	0.07537759
27	0x3d93bb68	0.07213479
28	0x3e640d60	0.22270727
29	0x3d552c3c	0.05204414
30	0x3e8b8d8b	0.27256426
31	0x3e1c3611	0.15255
32	0x3e277050	0.16351438
33	0x3e0b8ee2	0.13628724
34	0x3e82776c	0.25481737
35	0x3d754226	0.059877537
36	0x3e40b8dc	0.18820518
37	0x3ec65c0e	0.38742107
38	0x3d0fd078	0.03511092
39	0x3e966f14	0.2938162
40	0x3d8087a5	0.06275872
41	0x3e12adf4	0.1432417
42	0x3e7c9a9b	0.24668352
43	0x3e6f0b7a	0.23344222
44	0x3e865908	0.262398
45	0x3c94350c	0.018091701
46	0x3e97bbc2	0.29635435
47	0x3da5166d	0.08060918
48	0x3ea9904c	0.33117902
49	0x3e467259	0.19379558
50	0x3e0e8190	0.13916612
51	0x3e6ee227	0.23328458
52	0x3ed87867	0.4227936
53	0x3e520879	0.20511045
54	0x3e212e2b	0.15740268
55	0x3e7bc92f	0.24588464
56	0x3e150491	0.14552523
57	0x3df7fbb0	0.121085525
58	0x3d87042a	0.06592591
59	0x3e9d8e86	0.307728
60	0x3dfaac11	0.1223985
61	0x3e5eb150	0.21747327
62	0x3d921601	0.07133103
63	0x3e81e18f	0.253674
64	0x3e22cb63	0.15897898
65	0x3ebbeab4	0.36702502
66	0x3e5f6c9a	0.21818772
67	0x3e202c10	0.15641809
68	0x3ef5f959	0.480418
69	0x3e2ae14d	0.16687508
70	0x3e927bc5	0.28610054
71	0x3e8d4939	0.27594927
72	0x3d499788	0.049216777
73	0x3ea1e56b	0.31620345
74	0x3d1b1f62	0.037871726
75	0x3db2dfc0	0.08734083
76	0x3dcc4cc5	0.0997558
77	0x3eaeb720	0.34124088
78	0x3e5f75cf	0.21822284
79	0x3e21765d	0.15767808
80	0x3e4c968e	0.19979307
81	0x3f024fe5	0.5090316
82	0x3e64c16e	0.22339413
83	0x3e498c89	0.19682516
84	0x3d5d1ca6	0.0539824
85	0x3df49981	0.11943341
86	0x3e36097a	0.17777053
87	0x3defe2de	0.11713193
88	0x3dc1d158	0.09463757
89	0x3ee25ffd	0.44213858
90	0x3e2149f3	0.15750866
91	0x3df7bc84	0.120965034
92	0x3cbbc04c	0.022918843
93	0x3e9a7d09	0.3017352
94	0x3ea2b77e	0.31780618
95	0x3d0485ff	0.03235435
96	0x3ef896a4	0.4855243
97	0x3e84fd9b	0.25974736
98	0x3eb90385	0.36135498
99	0x3eb49ea9	0.35277298
100	0x3e78249c	0.24232715
101	0x3ed152ec	0.40883577
102	0x3d4f3479	0.05058715
103	0x3db9fe51	0.0908171
104	0x3daf4292	0.08557619
105	0x3e1ebccd	0.1550171
106	0x3e8a4388	0.27004647
107	0x3e69ad86	0.228201
108	0x3dd4bdd5	0.1038777
109	0x3e20acba	0.1569089
110	0x3d5f66bb	0.05454133
111	0x3c854b4b	0.016271254
112	0x3e037092	0.12835911
113	0x3ec418eb	0.3830026
114	0x3cbcca1f	0.023045598
115	0x3e34b10f	0.17645667
116	0x3f2985ed	0.6621998
117	0x3e8aa320	0.2707758
118	0x3e100158	0.14063013
119	0x3edeabc2	0.43490416
120	0x3e3ce2ed	0.1844594
121	0x3e17ca84	0.14823347
122	0x3e3de7da	0.18545476
123	0x3ec9a9f4	0.39387476
124	0x3dfcd2c3	0.12344887
125	0x3e65f0f8	0.22455204
126	0x3c91db57	0.017804785
127	0x3e12cfd8	0.14337099

fc2.weight f4 [256, 128]
0	0x3dc7d33c	0.09757087
1	0x3d390401	0.045169834
2	0x3cb1c665	0.021701047
3	0x3e993d1d	0.29929438
4	0x3cbeec3b	0.023306003
5	0xbd7bf1d1	-0.06150991
6	0xbd575f03	-0.052580845
7	0x3e605a23	0.21909384
8	0x3dfebcdc	0.12438366
9	0x3e2afaf7	0.16697298
10	0x3e681eb6	0.22667965
11	0x3db960b3	0.09051647
12	0x3d953402	0.0728531
13	0x3e056fab	0.13030879
14	0x3d55dd98	0.05221328
15	0xbd3ea03d	-0.046539534
16	0x3dc792d5	0.09744803
17	0x3bc0e3db	0.0058865375
18	0x3cb15e4f	0.021651415
19	0xbcd9e78e	-0.026599672
20	0x3eb91da6	0.36155432
21	0x3c2b10e4	0.010441039
22	0x3dd82ff0	0.10556018
23	0x3e093eff	0.13402937
24	0x3e371938	0.17880714
25	0x3e2bbff9	0.1677245
26	0x3c0e60b5	0.008690049
27	0x3d6d5200	0.05793953
28	0x3d5c221d	0.05374347
29	0x3e5ffd8b	0.21874063
30	0x3e92eee6	0.2869789
31	0x3dde5759	0.10856504
32	0xbe0860e3	-0.1331821
33	0x3e8ba63b	0.2727526
34	0x3e96a913	0.29425868
35	0x3dff8fc4	0.12478593
36	0x3e5b620e	0.21424124
37	0x3af6cc12	0.0018829128
38	0x3e1cb16b	0.15302055
39	0xbdad4d88	-0.084620535
40	0x3ce55aee	0.02799746
41	0x3c88ef07	0.01671554
42	0x3cc3c8b7	0.02389942
43	0x3de5c87d	0.11219881
44	0x3e4e79c7	0.20163642
45	0x3c6a70a6	0.014309084
46	0x3daf236b	0.08551677
47	0x3e5e9564	0.21736676
48	0xbdab4963	-0.08363607
49	0xbc520f61	-0.012821049
50	0x3df369ba	0.118854
51	0xbdd6435d	-0.10462067
52	0x3c4c2ffc	0.012462612
53	0x3d45b653	0.04826958
54	0x3e0b170e	0.13583013
55	0x3d9809b8	0.07423729
56	0x3ae1d410	0.0017229337
57	0x3d539663	0.05165709
58	0x3e4cee02	0.20012668
59	0x3dcfd34c	0.101477236
60	0xbd49f609	-0.049306903
61	0x3cd6a12a	0.026199896
62	0xbdc2d8b9	-0.09513993
63	0x3b65def4	0.0035075517
64	0x3e1f37a8	0.15548575
65	0x3e145f7a	0.14489546
66	0x3e163485	0.14668472
67	0x3e2e3741	0.17013265
68	0xbd5a309c	-0.053269014
69	0xbd11fe9f	-0.035643216
70	0x3df2e131	0.11859358
71	0x3d8b7c1d	0.06810782
72	0xbe267218	-0.16254461
73	0x3d62670d	0.055274058
74	0x3e5f53b3	0.21809272
75	0x3e8aa6ff	0.27080533
76	0x3e17e795	0.14834435
77	0x3cc1e42c	0.023668371
78	0x3ba7cc09	0.0051207584
79	0x3e28d20e	0.1648638
80	0x3d073148	0.033005983
81	0xbe0a5f76	-0.13512978
82	0x3e1cb873	0.15304737
83	0xbd7da83b	-0.061928015
84	0x3e7cc98b	0.24686258
85	0x3de579fb	0.112049066
86	0x3bbfb0fc	0.0058499556
87	0x3da83ef2	0.08215131
88	0xbc90e7e4	-0.017688699
89	0xbd87346e	-0.06601797
90	0x3add4fff	0.0016884803
91	0x3e7f5446	0.24934492
92	0x3e11f3ed	0.14253207
93	0xbcd01223	-0.025399273
94	0xbd0b3f18	-0.033995718
95	0x3da0d04c	0.078522295
96	0xbe1ce523	-0.15321784
97	0xbdf707e1	-0.1206205
98	0x3d77c473	0.060490083
99	0x3e3b88ac	0.18313855
100	0x3e77db68	0.2420479
101	0xbc35000f	-0.011047377
102	0x3eed4098	0.46338344
103	0x3d985cc7	0.07439571
104	0x3e2c83a9	0.168471
105	0xbd4d9564	-0.050191298
106	0x3e74b645	0.23897655
107	0x3e4e3e8b	0.20141046
108	0x3dea8296	0.114506885
109	0x3d69148f	0.05690437
110	0x3dd86304	0.10565761
111	0xbd8cbf4c	-0.068724245
112	0x3cb3af6e	0.021934237
113	0xbe33ef29	-0.17571701
114	0x3d85195b	0.06498977
115	0x3cbad9b6	0.02280889
116	0xbd87c439	-0.066292234
117	0x3d899c54	0.0671927
118	0x3d12c28a	0.03583006
119	0xba207d01	-0.00061221427
120	0x3e4bd93c	0.19907087
121	0xbcbe4e11	-0.023230584
122	0x3dd01561	0.10160328
123	0x3e5778de	0.21042201
124	0x3db84d45	0.08999113
125	0x3e609fe5	0.21935995
126	0x3dfa4b0e	0.12221347
127	0x3d8ac56f	0.06775939
128	0x3e8ce286	0.27516574
129	0xbe02a733	-0.12759094
130	0x3e09d202	0.13459018
131	0x3e0cfe6d	0.1376893
132	0xbdf7f37c	-0.12106988
133	0x3e1939a5	0.14963396
134	0x3c7a9cfe	0.015296219
135	0x3df40166	0.11914329
136	0x3e870d56	0.26377362
137	0xbe4b1c77	-0.19835077
138	0x3e112e4b	0.14177816
139	0x3e9ff3be	0.31240648
140	0x3e3f2f06	0.18670282
141	0x3d3c730d	0.04600816
142	0x3d65ba07	0.056085613
143	0x3d75ef05	0.0600424
144	0xbcf2ab29	-0.029622631
145	0x3d8599ec	0.06523499
146	0x3c5b9d8f	0.013404264
147	0xbda49fc7	-0.080382876
148	0x3dc8dc75	0.09807674
149	0x3e3d5471	0.18489243
150	0x3eb63379	0.35586146
151	0xbe8873b0	-0.26650763
152	0xbecd36a6	-0.40080756
153	0x3e48de11	0.19615962
154	0x3e72556e	0.23665401
155	0x3e41c393	0.18922262
156	0xbe92b2e0	-0.28652096
157	0x3e2eeb2f	0.17081903
158	0xbe305c5c	-0.17222732
159	0xbdfcbbbc	-0.12340495
160	0x3e24531c	0.16047329
161	0xbe01cc9f	-0.12675713
162	0x3d478b64	0.048716918
163	0x3de05bc3	0.10955002
164	0x3d4d2714	0.050086096
165	0x3e2dd6d0	0.16976476
166	0x3da8ee2e	0.08248554
167	0x3e9aef1f	0.3026056
168	0xbe264069	-0.16235508
169	0xbcd92db1	-0.026511045
170	0x3de3f115	0.11129967
171	0x3de5db49	0.11223466
172	0xbc044cb7	-0.008074931
173	0xbd3716e4	-0.044699565
174	0x3db519aa	0.08842786
175	0x3d5c5401	0.05379105
176	0x3e043e2f	0.12914346
177	0x3a8458db	0.0010097282
178	0xbdaae6ac	-0.083447784
179	0x3c7e0497	0.015504024
180	0xbddaac87	-0.10677438
181	0x3e186e80	0.14885902
182	0x3d1e281d	0.038612474
183	0x3eb12028	0.34594846
184	0x3e16a018	0.14709508
185	0x3e37c6df	0.17946957
186	0xbd820972	-0.06349458
187	0x3cc89bef	0.024488417
188	0x3e3bba12	0.18332699
189	0x3e9af948	0.30268312
190	0x3d493fd7	0.049133148
191	0x3dc0e001	0.09417725
192	0x3e155f66	0.14587173
193	0xbd9b67e3	-0.07588174
194	0x3e5405cb	0.20705335
195	0x3dabfbb0	0.08397615
196	0x3e4f2458	0.20228708
197	0xbcd4cac6	-0.025975596
198	0x38ff540e	0.00012175004
199	0x3dcca6a7	0.09992724
200	0xbce14dce	-0.02750292
201	0x3d030ae4	0.031992808
202	0x3d353055	0.044235546
203	0xbce657fc	-0.028118126
204	0xbe4c9e55	-0.19982274
205	0xbe9e52bd	-0.309225
206	0x3dc1fb49	0.09471757
207	0x3e26543f	0.16243075
208	0x3e219192	0.15778187
209	0x3cb6e701	0.022326948
210	0x3e449651	0.19197966
211	0x3d08868c	0.03333144
212	0x3bd6f5bd	0.006560056
213	0xbbeab3d1	-0.007162549
214	0x3e5d1088	0.21588337
215	0x3d9cc33e	0.07654427
216	0x3cd447cc	0.025913142
217	0x3e99a33b	0.30007347
218	0x3afeddbc	0.0019444744
219	0x3e0b31f7	0.13593279
220	0x3dc71114	0.09720054
221	0xbdd6232d	-0.10455928
222	0x3d888c46	0.0666738
223	0x3d1f6c76	0.038921796
224	0xbe7b4adf	-0.2454028
225	0x3bb13713	0.0054081767
226	0xbd829d7a	-0.063776925
227	0x3de4ba34	0.11168328
228	0x3c3ca28b	0.011513363
229	0xbda9fc15	-0.08300034
230	0x3b81ea1c	0.0039646756
231	0xbd55f396	-0.052234255
232	0xbe5af8b6	-0.21383938
233	0x3e3e75f8	0.18599689
234	0x3d8bde20	0.06829476
235	0x3e4d436d	0.20045252
236	0x3dac4a9d	0.08412669
237	0x3e3e9161	0.18610145
238	0x3e403218	0.18769109
239	0x3de84b06	0.113424346
240	0x3e0145c7	0.12624274
241	0xbd7fc3d7	-0.062442627
242	0xbd2b1288	-0.04176572
243	0x3d9f298b	0.077715956
244	0x3d667a23	0.056268822
245	0x3c3700ab	0.011169593
246	0x3df707ac	0.1206201
247	0x3e41ca77	0.1892489
248	0xbd9b43b8	-0.07581276
249	0x3e5e5663	0.21712641
250	0x3c1095f5	0.008824815
251	0xbe14b404	-0.14521796
252	0x3e8aa999	0.27082518
253	0xbea8cd06	-0.3296892
254	0x3e47972f	0.19491266
255	0xbd993d86	-0.07482438

fc2.bias f4 [256]
0	0x3d6c300e	0.057663016
1	0x3c88cb6a	0.016698558
2	0xbd945d69	-0.07244379
3	0xbd77a33b	-0.060458403
4	0x3ccce404	0.02501107
5	0x3d43573d	0.04769062
6	0xbd1ac4be	-0.037785284
7	0x3d1dab6b	0.038493555
8	0x3daea6cc	0.08527908
9	0x3d141fde	0.036163203
10	0x3cb48e65	0.022040555
11	0x3d7ee174	0.062226728
12	0xba45df91	-0.00075482676
13	0xbd2863ee	-0.041110925
14	0x3d81d030	0.06338537
15	0x3bb4f52a	0.00552239
16	0xbc81802f	-0.015808193
17	0x3c360528	0.011109628
18	0x3d0c023c	0.03418182
19	0x3d5b0e22	0.053480275
20	0x3daabc46	0.083366916
21	0xbd638505	-0.05554678
22	0x3bbfd8e3	0.0058547123
23	0xbd0e1e54	-0.034696892
24	0x3d7ae42f	0.06125277
25	0x3d8c814d	0.068606
26	0xba062b84	-0.00051181787
27	0xbce8ee17	-0.028433843
28	0xbd763a39	-0.06011412
29	0x3d4b005c	0.04956089
30	0xbd8f0843	-0.06983998
31	0xbc0e44e3	-0.008683416
32	0xbd817413	-0.063209675
33	0x3d9c9eb7	0.0764746
34	0x3d10c4af	0.035343822
35	0x3d378f0b	0.04481415
36	0x3d75cb85	0.060008544
37	0xbd3e263c	-0.046423182
38	0xbcc50ebe	-0.024054881
39	0xba8a0939	-0.0010531313
40	0x3d85cbbf	0.06533002
41	0xbcc7ef41	-0.024406077
42	0xbd8813e6	-0.0664442
43	0xbb876cac	-0.0041328277
44	0xb7ad791a	-2.06796e-05
45	0xbda8ff9a	-0.08251877
46	0x3d957818	0.07298297
47	0xbdad0956	-0.08449046
48	0x3c444830	0.0119801015
49	0x3d69bf9e	0.057067506
50	0xbb9494b9	-0.0045343307
51	0xbcb75ed3	-0.022384083
52	0xbd51ca02	-0.05121804
53	0x3d0e2677	0.03470465
54	0xbd033798	-0.03203544
55	0x3d434f34	0.047682956
56	0x3b8406fc	0.004029153
57	0xbc1ac175	-0.009445538
58	0xbd44e55b	-0.048070293
59	0x39565bb4	0.00020442792
60	0x3b890e15	0.004182587
61	0x3dab245c	0.083565444
62	0xbd671604	-0.05641748
63	0xbc9cff49	-0.019164698
64	0x3d49d5a5	0.049276013
65	0x3d00ad9e	0.031415574
66	0xbd8e965c	-0.069622725
67	0x3c977aee	0.018491235
68	0x3d991c26	0.07476072
69	0xbda55fa4	-0.080748826
70	0xbd2790c4	-0.040909544
71	0xbd00791f	-0.03136551
72	0x3d4ea01c	0.05044566
73	0x3da60cdf	0.08107924
74	0xbc71de5e	-0.014762489
75	0x3da32b67	0.07967263
76	0x3ca1bebd	0.019744271
77	0x3c78c722	0.015184196
78	0x3b46b200	0.0030318499
79	0xbd460d94	-0.048352793
80	0x3d9b2bb0	0.07576692
81	0xbb684d58	-0.003544649
82	0x3d50bf03	0.050963413
83	0xbd2aa2f4	-0.04165931
84	0xbb8bf2dd	-0.004270895
85	0x3da4b0e0	0.08041549
86	0x3d2daf1e	0.042403333
87	0x3d6365c1	0.055516962
88	0x3d72a98f	0.059243735
89	0x3d3bac6b	0.045818727
90	0xbc495c88	-0.012290128
91	0x3d8edf90	0.06976235
92	0x3d1996ec	0.037497446
93	0x3cc7857b	0.02435564
94	0x3c678510	0.014130846
95	0xbd94d775	-0.07267658
96	0xbd71b4eb	-0.059010427
97	0x3c25b55b	0.010114039
98	0x3daf973e	0.08573769
99	0x3a710346	0.0009193908
100	0x3d41b78c	0.047294185
101	0x3d654b20	0.055979848
102	0x3c4d6a60	0.012537569
103	0x3d8b0d8a	0.06789692
104	0x3d5c7df2	0.05383105
105	0xbd71add8	-0.05900368
106	0xbd95a6c9	-0.07307202
107	0x3b899efe	0.0041998615
108	0x3ca14949	0.019688265
109	0xbd9c837d	-0.07642267
110	0xbbcadb4a	-0.006190692
111	0xbd006f1c	-0.031355962
112	0x3cc3542f	0.023843853
113	0x3d4e22ed	0.050326277
114	0x3d90d428	0.070717156
115	0x3bb920ca	0.0056496607
116	0xbd585621	-0.052816514
117	0x3bd688e6	0.0065470813
118	0x3d8687a8	0.06568843
119	0xbd1d3718	-0.03838262
120	0xbd141ae1	-0.036158446
121	0x3d5bb13f	0.053635832
122	0xbd3cc1f1	-0.046083394
123	0x3d267bf0	0.04064554
124	0x3dad5317	0.08463114
125	0xbd791385	-0.06080963
126	0x3cffbd00	0.031218052
127	0xba41b3ee	-0.00073891773
128	0x3cbb38d9	0.022854256
129	0x3d7a5c71	0.061123315
130	0x3b80a013	0.0039253323
131	0xbda33c1d	-0.0797045
132	0x3c9ef2f2	0.019402955
133	0x3d28b7a5	0.041190762
134	0xb90ad998	-0.00013241766
135	0xbc5423c2	-0.012947978
136	0x3c4c4452	0.012467461
137	0x3c82b2c9	0.015954392
138	0x3d140c2c	0.03614442
139	0x3d13173d	0.035910834
140	0xbd42e0e8	-0.04757777
141	0xbd9c413b	-0.07629629
142	0x3b825b50	0.0039781705
143	0x3dae80c0	0.08520651
144	0x3da4aa97	0.0804035
145	0xbce0c2d6	-0.027436655
146	0x3d55460a	0.052068748
147	0xbc8471db	-0.016167572
148	0x3d187744	0.037223116
149	0x3b6a69ea	0.0035768696
150	0xbc940197	-0.018067164
151	0x3d03c40e	0.032169394
152	0x3db02544	0.08600858
153	0x3d9e5da0	0.07732701
154	0xbd2b0e3c	-0.04176162
155	0x389ac2a8	7.37955e-05
156	0x3d85ed68	0.06539422
157	0x3a904df3	0.0011009559
158	0x3da8b4ca	0.08237608
159	0x3d920f4f	0.07131826
160	0x3db2497a	0.08705421
161	0x3cb02a42	0.021504525
162	0xbd0396ba	-0.032126166
163	0xbc675d52	-0.01412137
164	0xbd63dcbe	-0.055630438
165	0x3d9b2254	0.07574907
166	0x3a3b616b	0.00071480003
167	0xbd6d901b	-0.057998758
168	0x3ca6d7dc	0.020366602
169	0xbd7b69f8	-0.061380357
170	0xbd0055b9	-0.03133175
171	0x3d40fd80	0.047116756
172	0x3d03277d	0.03202008
173	0x3d8a48f8	0.06752199
174	0xbce4bedd	-0.027923042
175	0x3d053efc	0.03253077
176	0xbc5d0d78	-0.013491981
177	0xbd9570c5	-0.072969
178	0xbd6dd6bb	-0.05806611
179	0xbd0771c0	-0.033067465
180	0x3c84f6b4	0.016230918
181	0x3d97a449	0.07404382
182	0x3b6e78ca	0.0036387914
183	0xbd1491d7	-0.036271896
184	0x3d5d4a71	0.05402607
185	0xbc7a0980	-0.015261054
186	0x3da705a6	0.08155374
187	0x3d0ff03d	0.03514122
188	0xbc4a25ab	-0.012338082
189	0xbbec4e08	-0.0072114505
190	0x3b3e8e05	0.002907635
191	0x3d11fc80	0.035641193
192	0xbc7359ad	-0.014852923
193	0x3d306522	0.043065198
194	0x3d10d835	0.03536244
195	0x3d2d956e	0.042378835
196	0x3d276806	0.04087069
197	0xbda9ad52	-0.08285011
198	0x3caffa7b	0.021481743
199	0x3d894437	0.06702464
200	0x3da04531	0.07825697
201	0xbc16f207	-0.009212977
202	0xbca33870	-0.019924372
203	0x3cf5d30a	0.030007858
204	0x3b7372f3	0.0037147372
205	0x3d9679c3	0.07347443
206	0x3d567469	0.05235711
207	0x3da9b096	0.08285634
208	0x3d3bd2af	0.04585522
209	0x3c4cee27	0.012507952
210	0x3da33c42	0.07970478
211	0xbcbffd25	-0.023436138
212	0xbd8f73ad	-0.07004485
213	0x3d6ef836	0.05834218
214	0xbcf58eca	-0.029975314
215	0xbdb0dbbf	-0.08635663
216	0x3dad04e5	0.08448199
217	0xb90ff4d1	-0.00013728744
218	0xbd26acbe	-0.040692084
219	0xbd4209b6	-0.047372542
220	0x3c57cd60	0.013171524
221	0xbd3db839	-0.046318267
222	0xbd9d4b07	-0.07680326
223	0x3d89abf3	0.0672225
224	0x3d79ecf1	0.06101698
225	0xbd353336	-0.04423829
226	0x3cbd7b1d	0.023129994
227	0x3ca2a27e	0.019852873
228	0x3d990533	0.07471695
229	0xbd606cbc	-0.054791197
230	0x3d31bfdb	0.04339586
231	0xbbb13ad0	-0.0054086223
232	0x3c20f00f	0.009822859
233	0x3c3e52d1	0.011616425
234	0x39f24e61	0.00046216234
235	0xbd05aaa5	-0.032633442
236	0xbbd6f3af	-0.006559811
237	0xbd85f607	-0.065410666
238	0xbda3538e	-0.07974921
239	0xbd7892fd	-0.060687054
240	0xbda86482	-0.08222295
241	0xbd8f701b	-0.07003804
242	0xbcb51b3b	-0.022107711
243	0xbd6c8d7f	-0.05775213
244	0xbd8824d0	-0.066476464
245	0xbc1364d7	-0.00899621
246	0x3d7eb8c8	0.06218794
247	0x3d180684	0.03711559
248	0x3d4e24d2	0.050328083
249	0x3ccbff4c	0.024902008
250	0x3d93eb3d	0.072226025
251	0xbc1dbe7c	-0.009627935
252	0x3caf91c2	0.021431807
253	0xbd276fb3	-0.04087801
254	0x3bba93b6	0.005693878
255	0x3c9fb40d	0.019495035

bn2.weight f4 [256]
0	0x3f64797a	0.8924786
1	0x3f8d4fb2	1.1039946
2	0x3f69c7af	0.9132032
3	0x3fa61ba7	1.2977189
4	0x3f91da2d	1.1394707
5	0x3f8a3a46	1.0799034
6	0x3f8095cf	1.0045718
7	0x3f2df74e	0.6795548
8	0x3fa5b9d2	1.2947333
9	0x3f582976	0.84438264
10	0x3f9376fa	1.1520684
11	0x3f85cb9b	1.045276
12	0x3f57cfac	0.8430126
13	0x3f4bfb09	0.79679924
14	0x3f8da51c	1.1066012
15	0x3f686c9b	0.9079072
16	0x3f6cd99e	0.9251956
17	0x3f468724	0.7754996
18	0x3f765225	0.9621909
19	0x3f7ec190	0.995141
20	0x3f47e6a6	0.78086317
21	0x3f6fe20f	0.93704313
22	0x3f7f987f	0.99842066
23	0x3fa6ff9a	1.3046753
24	0x3f6121c4	0.8794215
25	0x3f837546	1.0270164
26	0x3f4e392e	0.80556
27	0x3f9523f0	1.1651592
28	0x3f7c50b6	0.98560655
29	0x3f736fc9	0.95092446
30	0x3f353f0a	0.70799315
31	0x3f88ca91	1.0686818
32	0x3fae3e77	1.3612813
33	0x3f907aaf	1.128744
34	0x3f5616d2	0.8362857
35	0x3f74271b	0.9537217
36	0x3f5d6d68	0.86495066
37	0x3f7ee1e9	0.9956346
38	0x3fa051cf	1.2524966
39	0x3f5d35b7	0.8641009
40	0x3f8e3b3b	1.1111826
41	0x3f93ae86	1.1537635
42	0x3f479e77	0.77976173
43	0x3f7c38ac	0.98523974
44	0x3f6b66f3	0.91953963
45	0x3f78c19e	0.97170436
46	0x3f875ae5	1.0574614
47	0x3f6a9df1	0.9164725
48	0x3f8b868e	1.0900438
49	0x3f847f7f	1.0351409
50	0x3f896699	1.0734435
51	0x3f51a5b0	0.81893444
52	0x3f5132a0	0.8171787
53	0x3f87034d	1.0547882
54	0x3f812685	1.008988
55	0x3f6b4b95	0.91912204
56	0x3f79a261	0.97513396
57	0x3f8688c2	1.0510485
58	0x3f9b3a2e	1.212713
59	0x3f87dbf9	1.0614005
60	0x3f78dfab	0.9721629
61	0x3f76f61c	0.96469283
62	0x3f917b58	1.1365767
63	0x3f542d21	0.8288136
64	0x3f8b3913	1.0876793
65	0x3f2af839	0.6678501
66	0x3f800d13	1.000399
67	0x3f4bc61a	0.79599154
68	0x3f972eca	1.1811154
69	0x3f64ff32	0.894519
70	0x3f9253c4	1.1431813
71	0x3f6c9464	0.92413926
72	0x3f83718c	1.0269027
73	0x3fa23c35	1.2674624
74	0x3f800380	1.0001068
75	0x3f6a0140	0.9140816
76	0x3f8af7ce	1.0856874
77	0x3f8f15ff	1.1178588
78	0x3f74495b	0.9542443
79	0x3f5c85b1	0.86141497
80	0x3f5fe18d	0.8745354
81	0x3f95c3d9	1.1700393
82	0x3f819485	1.012345
83	0x3f9e6259	1.2373763
84	0x3f651c19	0.89496
85	0x3f667190	0.9001703
86	0x3f6e9d0d	0.9320839
87	0x3f892430	1.0714169
88	0x3f9f430e	1.2442338
89	0x3f6139d4	0.87978864
90	0x3f3ca53f	0.73689646
91	0x3f64eb97	0.8942198
92	0x3f6f219d	0.93410665
93	0x3f80ce58	1.0062971
94	0x3f9bc3e3	1.2169155
95	0x3f6d9175	0.92800075
96	0x3f50572e	0.81383026
97	0x3f91ff90	1.1406116
98	0x3f37b2b1	0.71757036
99	0x3f89ca7a	1.0764916
100	0x3f600e1e	0.8752154
101	0x3f601f65	0.87547904
102	0x3f74c13d	0.9560736
103	0x3f5cce8b	0.8625266
104	0x3f691dc2	0.9106103
105	0x3f864385	1.0489355
106	0x3fb02c45	1.376351
107	0x3f652355	0.8950704
108	0x3f54b4fd	0.83088666
109	0x3f82d6f0	1.0221844
110	0x3f84589c	1.0339541
111	0x3f87dbc2	1.061394
112	0x3f7c085a	0.98450243
113	0x3f898c54	1.074595
114	0x3f81fa15	1.0154444
115	0x3f5cea16	0.86294687
116	0x3f3c0218	0.73440695
117	0x3f823055	1.0171
118	0x3f8323ad	1.0245262
119	0x3f6738fd	0.9032133
120	0x3f91c45d	1.138805
121	0x3f89438c	1.0723739
122	0x3f360808	0.71106005
123	0x3fa2ac2e	1.2708795
124	0x3f7d3e86	0.9892353
125	0x3f8eb10d	1.1147782
126	0x3f9be65d	1.2179676
127	0x3f847996	1.0349605
128	0x3f68e1be	0.90969455
129	0x3f666685	0.9000018
130	0x3f96ccea	1.1781285
131	0x3f869c86	1.0516517
132	0x3f9589fe	1.1682737
133	0x3f84c1a6	1.0371597
134	0x3f4b248e	0.79352653
135	0x3f9c0229	1.2188159
136	0x3f8b2171	1.086958
137	0x3fa4b303	1.286713
138	0x3f9dac19	1.2318145
139	0x3f6143f4	0.87994313
140	0x3faa74ed	1.3316933
141	0x3f80b7a9	1.0056049
142	0x3f7b815f	0.9824428
143	0x3f63045a	0.88678515
144	0x3f9f31fb	1.2437128
145	0x3f6c749d	0.9236544
146	0x3f5f9713	0.87339896
147	0x3f95ea36	1.17121
148	0x3f60640e	0.8765267
149	0x3f5af902	0.85536206
150	0x3f4e42e8	0.8057084
151	0x3f39cb49	0.72575814
152	0x3f3daf43	0.74095553
153	0x3f8e2bc7	1.110711
154	0x3f8062d0	1.0030155
155	0x3f8fa2bf	1.1221541
156	0x3f8085d2	1.0040839
157	0x3f6f4c2b	0.934756
158	0x3f95c598	1.1700926
159	0x3f858c1a	1.0433381
160	0x3f6739b9	0.9032245
161	0x3f788847	0.9708294
162	0x3f541941	0.82851034
163	0x3f7a6bbb	0.97820634
164	0x3f852bfa	1.0404046
165	0x3f51f762	0.820181
166	0x3fa575be	1.2926557
167	0x3fa5f865	1.2966429
168	0x3fa656b5	1.2995211
169	0x3f58d52d	0.8470028
170	0x3fabc132	1.3418334
171	0x3f65cfca	0.89770186
172	0x3f995488	1.1978922
173	0x3f786ebf	0.97043985
174	0x3f97c1e8	1.185605
175	0x3f806ec7	1.0033807
176	0x3f7c60dc	0.98585296
177	0x3f9b9181	1.2153779
178	0x3f84e71c	1.0383029
179	0x3f8ac243	1.0840534
180	0x3fa24297	1.2676572
181	0x3f5553cc	0.8333099
182	0x3f6592e3	0.89677256
183	0x3fa171f5	1.2612902
184	0x3f743e49	0.9540754
185	0x3f743522	0.95393574
186	0x3f8c767a	1.0973656
187	0x3f7157a4	0.94274354
188	0x3f9a60eb	1.2060827
189	0x3f8b00e7	1.085965
190	0x3f4d1122	0.8010427
191	0x3f0696a7	0.5257363
192	0x3f7faca8	0.9987283
193	0x3f87a07f	1.0595855
194	0x3f5af11f	0.8552417
195	0x3f660091	0.89844614
196	0x3f930994	1.1487298
197	0x3f6beb22	0.9215566
198	0x3f79dda1	0.97603804
199	0x3f3ec8d3	0.74525183
200	0x3f4d5cbf	0.80219644
201	0x3f5fdd65	0.87447196
202	0x3f78d816	0.9720472
203	0x3f6759bd	0.90371305
204	0x3f67a3b6	0.9048418
205	0x3f5c3b9c	0.86028457
206	0x3f62a711	0.88536173
207	0x3f7c5391	0.9856501
208	0x3f74b2ff	0.95585626
209	0x3f76788a	0.9627768
210	0x3f4cd24c	0.8000839
211	0x3f815958	1.010539
212	0x3f86f4e3	1.0543483
213	0x3f921020	1.1411171
214	0x3f4fcfd8	0.8117652
215	0x3f76d66c	0.9642093
216	0x3fa85104	1.3149724
217	0x3f68a734	0.9088013
218	0x3f6d7e24	0.927706
219	0x3f43d7b1	0.76500994
220	0x3fa2de52	1.2724097
221	0x3f952e89	1.1654826
222	0x3f8f3791	1.1188833
223	0x3f36e7f1	0.71447664
224	0x3f67f45a	0.90607226
225	0x3fa484ac	1.2852988
226	0x3f6f7b82	0.9354783
227	0x3f4fb388	0.8113332
228	0x3f9d03ce	1.2266786
229	0x3f69e5e9	0.9136644
230	0x3f8596c1	1.0436631
231	0x3f92beee	1.1464517
232	0x3f747729	0.95494324
233	0x3f99e27f	1.2022246
234	0x3fa50ee7	1.2895173
235	0x3f6d38e4	0.92664933
236	0x3f9c2e63	1.2201656
237	0x3f6794a9	0.9046121
238	0x3f6759c1	0.9037133
239	0x3f99cf07	1.2016305
240	0x3f68209c	0.9067476
241	0x3f6ee286	0.933144
242	0x3f8f64e5	1.1202666
243	0x3f86c115	1.0527674
244	0x3f9a5aa3	1.205891
245	0x3f9e7f26	1.2382553
246	0x3f6e1644	0.93002725
247	0x3f63f31f	0.8904285
248	0x3f97f657	1.1872052
249	0x3f861801	1.0476075
250	0x3f64cb6f	0.89372915
251	0x3f846245	1.034249
252	0x3f44d9e0	0.7689495
253	0x3fb06d5a	1.3783371
254	0x3fafa134	1.372107
255	0x3f85bd65	1.0448424

bn2.bias f4 [256]
0	0xbe8d2f6a	-0.27575237
1	0xbdf31679	-0.11869521
2	0xbe76be7d	-0.24096103
3	0xbdab42ee	-0.08362375
4	0xbeb13590	-0.34611177
5	0xbeafef65	-0.3436233
6	0xbe70ac4f	-0.2350323
7	0xbed507c9	-0.41607502
8	0xbe5b8397	-0.21436916
9	0xbe42a6c3	-0.19008927
10	0xbeb8f186	-0.36121768
11	0xbed2bc3b	-0.41159233
12	0xbdb38f54	-0.08767572
13	0xbe3156a5	-0.17318209
14	0xbeba97fc	-0.3644408
15	0xbe115216	-0.1419147
16	0xbe9be7b7	-0.30450222
17	0xbeaef347	-0.3416998
18	0xbe38366c	-0.1798951
19	0xbda9a0d6	-0.0828263
20	0xbe7d62f1	-0.24744774
21	0xbe0d839a	-0.13819733
22	0xbdc3543a	-0.09537549
23	0xbe801b2c	-0.2502073
24	0xbd8a2328	-0.06744987
25	0x3ca21701	0.01978636
26	0xbea08c14	-0.3135687
27	0xbe551754	-0.2080968
28	0xbe1bdb51	-0.15220381
29	0xbdda7e7f	-0.106686585
30	0xbe1a36e0	-0.15059996
31	0xbe49ee84	-0.19719893
32	0xbe2ff9ec	-0.17185181
33	0xbdc17c29	-0.0944751
34	0xbe16109e	-0.14654776
35	0xbe5be6f7	-0.21474825
36	0xbdfc6589	-0.12324054
37	0xbde11061	-0.10989452
38	0xbdb24af0	-0.087056994
39	0xbd4bb506	-0.049733184
40	0xbea7b5df	-0.32755944
41	0xbe9f0ccc	-0.3106445
42	0xbe54648d	-0.20741482
43	0xbea75828	-0.32684445
44	0xbe5d0a8c	-0.21586055
45	0xbe5963c8	-0.2122947
46	0xbd51ac10	-0.051189482
47	0xbe0d0531	-0.13771512
48	0xbe48d664	-0.19613034
49	0xbcf2ff21	-0.02966267
50	0xbe230178	-0.15918529
51	0xbedbdc17	-0.42941353
52	0xbece734f	-0.40322348
53	0xbdd396bc	-0.10331485
54	0xbe39f2ba	-0.18158999
55	0xbdc21a9c	-0.094777316
56	0xbe962e98	-0.29332423
57	0xbe4b9825	-0.19882257
58	0xbe9e750f	-0.30948684
59	0xbbe7d303	-0.007074715
60	0xbe7bb5ab	-0.2458102
61	0xbe0ac71d	-0.13552518
62	0xbdf98d19	-0.12185115
63	0xbce6e628	-0.028185919
64	0xbd7f7f89	-0.062377486
65	0xbe7dd82c	-0.24789494
66	0xbdefcba6	-0.11708765
67	0xbea54269	-0.3227723
68	0xbe9703a2	-0.2949496
69	0xbe3fb79f	-0.1872239
70	0xbe67bc30	-0.22630382
71	0xbe5fa187	-0.21838962
72	0xbcd6ddd9	-0.026228832
73	0xbd39c6b5	-0.045355517
74	0xbd97f53f	-0.07419824
75	0xbdbce53d	-0.09223411
76	0xbe0ff4f1	-0.14058281
77	0xbeb8cfbd	-0.36095992
78	0xbe049c01	-0.12950136
79	0xbe2c48da	-0.16824666
80	0xbbe94f28	-0.007120032
81	0x3de1222b	0.10992845
82	0x3bea49aa	0.0071498947
83	0xbe8a7b20	-0.27047062
84	0xbe235fb1	-0.15954472
85	0xbe2479d0	-0.16062093
86	0xbeb001fa	-0.34376508
87	0xbdfb8cdf	-0.122827284
88	0xbe1f3f2c	-0.15551442
89	0xbe1adc2c	-0.15123051
90	0xbe97e42b	-0.29666266
91	0xbe700884	-0.23440748
92	0xbe0c11f5	-0.13678725
93	0xbe57b9cc	-0.2106697
94	0x3ae78553	0.0017663635
95	0xbea475f4	-0.3212124
96	0xbe27cb8a	-0.16386238
97	0xbd55cbe3	-0.052196395
98	0xbe9e3544	-0.30900013
99	0xbea0f8f9	-0.3143995
100	0xbd8b25d7	-0.06794327
101	0xbe923c6e	-0.2856173
102	0xbea9b7b7	-0.33147976
103	0xbd90dced	-0.07073388
104	0xbd83dc8b	-0.064385496
105	0x3c0f1bc4	0.008734647
106	0xbe6452c8	-0.22297204
107	0xbe918d25	-0.28427997
108	0xbdd99b23	-0.10625293
109	0xbe17bcfc	-0.14818186
110	0xbe3f1ee8	-0.18664134
111	0xbeba3f1d	-0.36376277
112	0xbddd3a10	-0.1080209
113	0xbe9b6d53	-0.30356845
114	0xbd818c93	-0.063256405
115	0xbdf059ff	-0.117359154
116	0xbe19b757	-0.15011345
117	0xbd11c2f5	-0.035586316
118	0xbdee8008	-0.11645514
119	0xbe2304a4	-0.15919739
120	0xbdd15921	-0.10222078
121	0xbe18b3fa	-0.14912406
122	0xbe8fc647	-0.2808096
123	0x3d584355	0.052798588
124	0xbe28d589	-0.16487707
125	0xbddd51ff	-0.10806655
126	0xbe968417	-0.29397652
127	0xbdb71567	-0.08939629
128	0xbeb7af6b	-0.3587602
129	0xbe3d6348	-0.18494904
130	0xbe2ed526	-0.17073497
131	0xbe0d4ebb	-0.13799565
132	0xbe449099	-0.19195785
133	0xbe3f55a9	-0.1868502
134	0xbe76ecd4	-0.2411378
135	0xbeafdc09	-0.3434756
136	0xbe725423	-0.23664908
137	0xbe4ef310	-0.20209908
138	0xbe93867d	-0.28813544
139	0xbe471739	-0.19442452
140	0xbe7fab82	-0.24967769
141	0xbc28f66b	-0.010312657
142	0xbea9f078	-0.33191276
143	0xbd34cc9a	-0.044140436
144	0xbe80e795	-0.25176683
145	0xbe6cfd97	-0.23143612
146	0xbe87dfea	-0.2653802
147	0xbe930404	-0.28714
148	0xbdedbbc7	-0.11608081
149	0xbd8cb5c4	-0.068706065
150	0xbe86f556	-0.2635905
151	0xbea8d835	-0.32977453
152	0xbebe714b	-0.3719581
153	0xbe3cd755	-0.18441518
154	0xbe2db8fc	-0.16965097
155	0xbe3300a0	-0.17480707
156	0xbe3621e1	-0.17786361
157	0xbd904722	-0.070448175
158	0xbedfd02f	-0.4371352
159	0xbd5eb18f	-0.05436855
160	0xbde31ad4	-0.110891014
161	0xbe325fd1	-0.17419364
162	0xbebcd875	-0.36883894
163	0xbe6ef0c2	-0.2333403
164	0xbeb54590	-0.35404634
165	0xbe5f6399	-0.21815337
166	0x3d4b6b0e	0.049662642
167	0xbe4e838b	-0.20167367
168	0xbedc32a1	-0.43007377
169	0xbe0b162e	-0.1358268
170	0xbde68393	-0.112555645
171	0xbd03c31b	-0.03216849
172	0xbe81c7ab	-0.25347647
173	0xbdca8bc3	-0.09889939
174	0xbec9aa80	-0.39387894
175	0xbe106515	-0.1410106
176	0xbe3b0c04	-0.18266302
177	0xbea2d754	-0.31804907
178	0xbe62dd95	-0.2215484
179	0xbd8ee482	-0.06977178
180	0xbe488cd0	-0.19584966
181	0xbdf4adde	-0.11947225
182	0xbea7bd85	-0.3276178
183	0xbee18f10	-0.4405446
184	0xbe14799b	-0.14499514
185	0xbe0b635a	-0.13612118
186	0xbe2e0bec	-0.16996735
187	0xbe1f5ce2	-0.15562776
188	0xbe85de0c	-0.2614597
189	0x3d221652	0.039572068
190	0xbe0e7ef9	-0.13915624
191	0xbec2ce7c	-0.3804816
192	0xbea6f539	-0.32608965
193	0xbdee7bbf	-0.116446964
194	0xbe056cc0	-0.13029766
195	0xbdf2c3b5	-0.118537344
196	0xbdf0ca2e	-0.11757313
197	0xbe2222ac	-0.15833539
198	0x3c0f47bf	0.008745133
199	0xbe9b51db	-0.30335888
200	0xbd8ad333	-0.06778564
201	0xbe81ed67	-0.25376436
202	0xbda623c3	-0.0811229
203	0xbe9b36cf	-0.30315253
204	0xbe4b4f5b	-0.1985449
205	0xbdc10d20	-0.094263315
206	0xbd58798b	-0.052850287
207	0xbe472fb2	-0.19451788
208	0xbeb7d5ee	-0.35905403
209	0xbe72b4d5	-0.23701794
210	0xbeaa03aa	-0.3320592
211	0xbe25f146	-0.1620532
212	0xbe9057d4	-0.28192008
213	0xbe67be32	-0.22631148
214	0xbe10371d	-0.14083524
215	0xbeb57bc0	-0.35445976
216	0xbe11f95f	-0.14255284
217	0xbd643b0f	-0.055720385
218	0x3cd6c643	0.026217585
219	0xbee022dc	-0.43776596
220	0xbe3c85b1	-0.18410374
221	0xbe6d4f1e	-0.23174712
222	0xbde4bc86	-0.111687705
223	0xbe7dd303	-0.24787526
224	0xbe37075a	-0.17873898
225	0xbe687e33	-0.22704391
226	0xbe09116f	-0.13385557
227	0xbe5834ca	-0.21113887
228	0xbe6017db	-0.218841
229	0xbd5bb9b1	-0.053643886
230	0xbe35f609	-0.17769636
231	0xbeae74a2	-0.3407336
232	0xbeaad99d	-0.3336915
233	0xbe069d4d	-0.13145943
234	0xbd41ba73	-0.047296952
235	0xbe2284c8	-0.15870965
236	0xbe5e7017	-0.21722446
237	0xbdc6b989	-0.09703357
238	0xbe080460	-0.13282919
239	0xbd7a6930	-0.06113547
240	0xbda76634	-0.081737906
241	0xbeb3078a	-0.3496669
242	0xbec4c848	-0.38434052
243	0xbe05a60b	-0.13051622
244	0xbe8522bf	-0.26003072
245	0xbe853f83	-0.26025018
246	0xbdff6a20	-0.124714136
247	0x3cd437eb	0.02590557
248	0xbdc5bb3a	-0.09654851
249	0xbebfc1af	-0.37452456
250	0xbd517fc1	-0.051147226
251	0xbe91d19b	-0.2848023
252	0xbd4c1e7b	-0.049833756
253	0xbe711658	-0.2354368
254	0xbe527c70	-0.20555282
255	0xbe25373f	-0.16134356
