demodulation_comm/qam_cnn_model.pth (torch, 288947 bytes, 20 tensors)

fc1.weight f4 [128, 2]
-0.38908616 -0.06847087 0.7553381 -0.1614171 -0.44055486 0.45694333 -0.6208003 -0.4032319
0.45849678 -0.6201772 0.7433418 -0.593587 -0.41421598 -0.5442074 -0.5289668 -0.29197165
0.47208852 -0.5657906 0.06854366 0.5341978 0.21741317 0.39266255 -0.138523 -0.731405
-0.5599763 -0.7787649 0.4071021 -0.499812 0.40886676 -0.017525068 0.3863283 0.105847575
-0.07961537 -0.43987206 -0.07202817 -0.54646695 -0.11964003 0.80906445 0.64316154 -0.6436526
0.60220736 -0.72895426 -0.23371154 -0.35844356 -0.28798038 0.34057868 0.09996175 0.13069853
0.47955242 -0.39941198 0.88215685 0.17315733 -0.56951296 -0.1992697 0.078521326 -0.55867743
0.580688 -0.16033074 -0.22090784 0.14996476 0.66513443 0.13723436 0.18886861 0.3791425
0.016081575 0.8956388 -0.21830682 -0.8287564 -0.5527764 -0.4540442 0.40568125 -0.3678643
-0.8268085 0.04221152 -0.5398342 -0.07916142 0.5899685 -0.0030036524 0.0503446 0.41020882
0.6032887 0.19558115 0.12114734 0.18173693 1.0104606 0.20283082 0.44828463 -0.05254773
0.3279738 -0.35843053 -0.66696984 0.23356988 0.83849096 -0.25439897 0.32925737 -0.075780384
-0.046103988 0.830024 -0.43664643 -0.29049444 0.3976352 -0.41680205 -0.06727363 0.5440224
0.40329903 0.09905181 -0.7708085 0.016864955 -0.05745181 0.7006528 0.7744555 0.011440181
-0.13692664 -0.04908002 -0.5434819 -0.43236688 0.42610878 -0.50451034 0.5358765 0.30253118
-0.57873476 0.19698063 0.5151402 0.27398857 -0.5675323 0.15413235 -0.58622515 0.6217907
-0.12565278 -0.31634057 0.52401173 -0.039457146 -0.40776834 -0.17901254 0.0916483 -0.5942151
0.54003733 -0.535555 -0.10629025 0.64434415 -0.29566088 -0.807613 -0.6374534 -0.57206196
-0.5371832 -0.21368834 -0.48839134 -0.17306732 0.18788646 0.40998602 0.3312354 0.40419266
0.12895119 -0.5537938 -0.3771943 0.43693125 0.43630087 0.0053495415 -0.40654093 -0.03467114
-0.015167414 0.7611554 -0.7902566 -0.46963677 0.02791566 -0.69203943 0.23183313 0.4501289
0.27686188 0.4596877 0.45715582 -0.6215605 -0.03584736 0.66842365 -0.20819157 0.27217948
0.14711311 -0.46746156 0.9111929 0.27377072 0.5514762 -0.5812288 -0.84669316 -0.0482267
0.09857845 0.5163939 -0.49356115 0.24709022 -0.6334255 -0.26058385 -0.106672816 0.6898617
-0.06568901 0.7857956 0.52299994 -0.2502333 -0.4733684 0.5485115 -0.6316366 -0.30733058
0.11079471 -0.22500318 -0.39287266 -0.033589438 0.36143267 0.5617419 0.17993304 -0.25669467
0.8091702 0.058813393 -0.0024870124 -0.7585364 0.23450455 -0.5733855 -0.009223197 -0.7270979
0.187505 -0.65615606 0.8299335 0.13100342 0.64593047 0.12781562 0.11199251 -0.5978441
0.52897245 -0.024931328 0.42699143 0.013542658 0.4354329 0.77358353 0.3055441 0.28313464
-0.13885787 0.17514616 0.5075062 0.61271584 0.08446171 0.26010525 -0.1801323 0.68075
-0.6083267 -0.70688564 -0.40304768 0.54940486 0.59813917 0.52499235 -0.2253179 -0.82839316
-0.014795834 -0.30299738 0.48578936 -0.08929294 0.5920269 -0.20332828 0.6122704 0.16412283
00000000: 4d36 c7be 753a 8cbd d65d 413f 864a 25be
00000010: 6890 e1be 7af4 e93e c5ec 1ebf 6974 cebe
00000020: 17c0 ea3e efc3 1ebf a64b 3e3f 51f5 17bf
00000030: 1e14 d4be 2d51 0bbf 5e6a 07bf 4f7d 95be
00000040: 96b5 f13e a7d7 10bf 9e60 8c3d 30c1 083f
00000050: 8fa1 5e3e 110b c93e f9d8 0dbe 5c3d 3bbf
00000060: 9b5a 0fbf 235d 47bf b06f d03e 5ce7 ffbe
00000070: fc56 d13e bb90 8fbc d3cc c53e 9dc6 d83d
00000080: 620d a3bd e936 e1be 8183 93bd 42e5 0bbf
00000090: d505 f5bd d91e 4f3f 3ca6 243f 6bc6 24bf
000000a0: 432a 1a3f bf9c 3abf 1452 6fbe ea85 b7be
000000b0: 2a72 93be 5460 ae3e bfb8 cc3d d6d5 053e
000000c0: e587 f53e ba7f ccbe 08d5 613f 2850 313e
000000d0: 9acb 11bf 5b0d 4cbe cacf a03d 7c05 0fbf
000000e0: f8a7 143f be2d 24be aa35 62be 5d90 193e
000000f0: 4046 2a3f 2a87 0c3e c666 413e f71e c23e
00000100: 82bd 833c 9648 653f d38b 5fbe 6129 54bf
00000110: c182 0dbf 7b78 e8be 74b5 cf3e b658 bcbe
00000120: b9a9 53bf fde5 2c3d 9332 0abf 621f a2bd
00000130: 2d08 173f edd8 44bb 2436 4e3d e406 d23e
00000140: 2171 1a3f 6d46 483e 191c f83d 3f19 3a3e
00000150: c656 813f e2b2 4f3e 9085 e53e 4a3c 57bd
00000160: 2fec a73e 3584 b7be 89be 2abf f12c 6f3e
00000170: 58a7 563f 9540 82be 6c94 a83e bf32 9bbd
00000180: 89d7 3cbd 747c 543f 1f90 dfbe b0bb 94be
00000190: d796 cb3e 1467 d5be c2c6 89bd 0d45 0b3f
000001a0: 367d ce3e addb ca3d b553 45bf 6028 8a3c
000001b0: 9752 6bbd fb5d 333f b742 463f 996f 3b3c
000001c0: 7f36 0cbe 2208 49bd a121 0bbf 315f ddbe
000001d0: ee2a da3e 9727 01bf 342f 093f 5ee5 9a3e
000001e0: f627 14bf 4ab5 493e 3ae0 033f 3b48 8c3e
000001f0: cc49 11bf dfd4 1d3e da12 16bf ad2d 1f3f
00000200: 1fab 00be 64f7 a1be a225 063f d19d 21bd
00000210: 03c7 d0be 104f 37be 1bb2 bb3d 7b1e 18bf
00000220: e33f 0a3f 221a 09bf b4ae d9bd bdf3 243f
00000230: dd60 97be babf 4ebf 2530 23bf a772 12bf
00000240: d784 09bf 1ed1 5abe 6e0e fabe 8f38 31be
00000250: 4f65 403e b0e9 d13e b097 a93e 57f2 ce3e
00000260: c80b 043e 6ec5 0dbf 9c1f c1be 74b5 df3e
00000270: d462 df3e 354b af3b 2226 d0be 5303 0ebd
00000280: bf80 78bc 15db 423f 424e 4abf 3b74 f0be
00000290: 62af e43c 7f29 31bf aa65 6d3e 4c77 e63e
000002a0: d7c0 8d3e 305c eb3e 5410 ea3e 971e 1fbf
000002b0: aed4 12bd d01d 2b3f 2c30 55be 1c5b 8b3e
000002c0: d2a4 163e 1f57 efbe f043 693f ad2b 8c3e
000002d0: 8b2d 0d3f 69cb 14bf e2c0 58bf 5c89 45bd
000002e0: 80e3 c93d 6432 043f 0cb4 fcbe 3805 7d3e
000002f0: 2c28 22bf 3f6b 85be 4777 dabd c79a 303f
00000300: f687 86bd e729 493f 53e3 053f 941e 80be
00000310: 585d f2be 406b 0c3f f0b2 21bf 6f5a 9dbe
00000320: 56e8 e23d 3c67 66be 9b26 c9be 1495 09bd
00000330: b40d b93e 51ce 0f3f 5e40 383e 7c6d 83be
00000340: c725 4f3f 50e6 703d 25fd 22bb 712f 42bf
00000350: f621 703e 64c9 12bf e41c 17bc 1723 3abf
00000360: 5001 403e d8f9 27bf 8676 543f c325 063e
00000370: b35b 253f 19e2 023e 545c e53d 500c 19bf
00000380: bd6a 073f c93c ccbc 9f9e da3e 06e2 5d3c
00000390: 10f1 de3e 9209 463f 4770 9c3e 06f7 903e
000003a0: c230 0ebe 8459 333e edeb 013f f2da 1c3f
000003b0: 43fa ac3d 842c 853e 9a74 38be a245 2e3f
000003c0: 4cbb 1bbf 75f6 34bf 445c cebe cca5 0c3f
000003d0: a61f 193f e665 063f bcb9 66be 9311 54bf
000003e0: 3a6a 72bc 7922 9bbe 62b9 f83e 38df b6bd
000003f0: 138f 173f 4a35 50be c1bd 1c3f d10f 283e

fc1.bias f4 [128]
0.40749902 -0.15514752 0.3825996 -0.46727362 -0.28509492 -0.24489325 0.2533147 0.68713623
-0.43984953 -0.51375777 -0.110446736 -0.05850584 -0.44288668 0.47773543 -0.10944396 0.26116887
-0.70756114 -0.20326808 0.43708563 0.0080250865 0.050289758 0.6650976 -0.047492083 -0.43774644
-0.53893244 -0.698668 -0.084732845 0.116103604 -0.03668245 -0.029701293 -0.6810782 -0.49322027
-0.3875495 0.47200572 0.15971981 0.5789654 -0.4876123 -0.34058595 0.081716634 -0.2936841
-0.65926963 0.39223891 -0.3585527 0.12671356 -0.69602853 -0.17143856 -0.36491945 0.22229165
0.4587971 0.49479157 -0.64541364 0.16401888 0.46147588 -0.49328277 -0.11200331 -0.6413418
0.28576356 0.23950318 -0.5404469 -0.2794545 -0.005319372 0.028512767 -0.10238014 -0.24303725
0.7035146 0.041512433 -0.62560487 -0.5965836 -0.36885405 -0.038766444 0.6034222 -0.4327357
0.6595813 -0.4656963 -0.1972062 0.13943027 0.63964885 -0.5111165 0.18945058 -0.4402153
-0.49991307 0.6560217 0.58995646 0.05134814 0.23375404 0.023125043 -0.2910566 -0.18467572
-0.24953893 0.49439 -0.10873116 -0.05704086 0.55119115 0.6418433 -0.47578165 0.6369066
0.34549418 -0.33071235 0.68539774 -0.5465082 0.4863048 0.54335254 0.5556441 -0.52807534
0.26070973 -0.10412662 -0.13277975 0.40688187 -0.4997693 -0.07754281 0.46588564 -0.43351284
-0.09339417 -0.2943943 -0.37737092 -0.06921257 0.3379515 -0.18686193 0.5910802 -0.31523964
0.28466165 -0.43705225 0.031254046 -0.36212096 -0.0549428 -0.29353303 0.1265159 -0.4884639
00000000: b6a3 d03e fede 1ebe 18e4 c33e 7d3e efbe
00000010: f6f7 91be 4cc5 7abe 77b2 813e 29e8 2f3f
00000020: f533 e1be a185 03bf e631 e2bd d2a3 6fbd
00000030: 0bc2 e2be bd99 f43e 2824 e0bd edb7 853e
00000040: ba22 35bf 8225 50be b0c9 df3e a77b 033c
00000050: a2fc 4d3d d643 2a3f 0f87 42bd 4d20 e0be
00000060: 7af7 09bf e8db 32bf 6a88 adbd bac7 ed3d
00000070: 5640 16bd 2050 f3bc 245b 2ebf 5e87 fcbe
00000080: e36c c6be bcaa f13e 978d 233e 1437 143f
00000090: 52a8 f9be 4861 aebe 0d5b a73d c35d 96be
000000a0: e5c5 28bf 8ad3 c83e 3894 b7be 33c1 013e
000000b0: ed2e 32bf 978d 2fbe b9d6 babe 6ca0 633e
000000c0: 74e7 ea3e 5255 fd3e d439 25bf 91f4 273e
000000d0: 9146 ec3e 8f8f fcbe fe61 e5bd fa2e 24bf
000000e0: 9a4f 923e 5240 753e ba5a 0abf a914 8fbe
000000f0: 204e aebb 9b93 e93c aeac d1bd c2de 78be
00000100: 8819 343f f108 2a3d a427 20bf b4b9 18bf
00000110: 70da bcbe 90c9 1ebd e179 1a3f 898f ddbe
00000120: 52da 283f bf6f eebe 6cf0 49be cfc6 0e3e
00000130: 07c0 233f 88d8 02bf 55ff 413e e663 e1be
00000140: 9bf4 ffbe 0af1 273f 6307 173f 6d52 523d
00000150: 385d 6f3e bb70 bd3c 5f05 95be a21b 3dbe
00000160: 2287 7fbe b020 fd3e 71ae debd ada3 69bd
00000170: dd1a 0d3f d84f 243f a799 f3be 500c 233f
00000180: 9de4 b03e 2153 a9be 3a76 2f3f f6e7 0bbf
00000190: f1fc f83e 2719 0b3f b13e 0e3f f22f 07bf
000001a0: bf7b 853e 5640 d5bd 6af7 07be d252 d03e
000001b0: c3e1 ffbe c4ce 9ebd 9088 ee3e 65f5 ddbe
000001c0: 7145 bfbd daba 96be c336 c1be 52bf 8dbd
000001d0: fb07 ad3e bc58 3fbe 0851 173f 1767 a1be
000001e0: 2cbf 913e 50c5 dfbe 3e04 003d eb67 b9be
000001f0: b40b 61bd f649 96be 628d 013e f117 fabe

bn1.weight f4 [128]
0.9378136 1.2696049 0.96283585 1.0488712 0.977922 1.0489593 1.1898717 1.0004125
0.9549258 0.8484816 0.73413056 0.86373705 1.1943183 0.8722699 1.0215298 0.8672096
0.9191231 1.1140137 0.9294952 0.76981634 0.932731 1.1018311 1.0278164 0.7720092
1.1688751 1.0040565 1.102422 0.9364359 1.0081025 0.84221137 1.0904105 0.7674255
0.7742501 1.0272346 1.1303705 1.0337706 0.92384315 0.92058265 1.1839318 0.71440536
0.80966336 0.9293024 1.1901752 1.0893013 0.9451663 0.8856395 1.1556292 0.96906006
0.86693054 0.83517367 1.1685642 0.869494 0.8366134 0.9934405 0.7692599 1.2534686
1.0627204 0.7197638 1.0712452 0.74975055 0.84975916 0.9497827 0.8154959 0.887893
1.2135142 1.0302938 1.0205894 1.007864 1.2568973 0.7222035 0.97137815 1.0049094
1.0255774 1.0808389 0.7855615 0.9807327 0.92418444 0.9931679 1.0045689 1.0605893
0.6749207 0.83770674 0.99276596 0.7530526 0.89232945 1.0341738 0.7956642 0.8310166
1.187395 0.71602094 1.1076413 0.8879252 0.83395344 0.8570209 1.1888577 0.8808766
0.84130657 1.0307189 0.8652469 0.85992295 0.9647103 0.8834898 0.92732066 1.1382823
1.2785802 0.91291636 0.9930614 0.92592436 1.1631898 1.1248509 1.1420188 1.0823973
1.1096897 1.0465221 0.99805635 0.86498094 0.8821565 0.67524755 0.61558914 0.90355515
1.0576187 0.9856094 0.9728239 0.95806336 1.0310737 1.1089046 1.2632432 0.96931106
00000000: 8d14 703f 6a82 a23f 697c 763f 6941 863f
00000010: 1959 7a3f 4c44 863f b74d 983f 840d 803f
00000020: 0476 743f 1736 593f fbef 3b3f df1d 5d3f
00000030: 6cdf 983f 154d 5f3f 7dc1 823f 7301 5e3f
00000040: a74b 6b3f 0098 8e3f 66f3 6d3f af12 453f
00000050: 75c7 6e3f cd08 8d3f 7d8f 833f 65a2 453f
00000060: b39d 953f ec84 803f 2a1c 8d3f 43ba 6f3f
00000070: 8109 813f 2a9b 573f 9292 8b3f ff75 443f
00000080: 4135 463f 6c7c 833f fbaf 903f 9852 843f
00000090: fc80 6c3f 4eab 6b3f 148b 973f 45e3 363f
000000a0: 1946 4f3f c3e6 6d3f a957 983f 3a6e 8b3f
000000b0: 6bf6 713f 45b9 623f a8eb 933f 5214 783f
000000c0: 29ef 5d3f f1cd 553f 8393 953f 2997 5e3f
000000d0: 4c2c 563f 1e52 7e3f 38ee 443f a971 a03f
000000e0: 3907 883f 7142 383f 901e 893f a7ef 3f3f
000000f0: d189 593f f624 733f 57c4 503f f54c 633f
00000100: 6f54 9b3f abe0 833f aca2 823f b001 813f
00000110: 03e2 a03f 54e2 383f 3dac 783f dfa0 803f
00000120: 1f46 833f ee58 8a3f 8f1a 493f 4c11 7b3f
00000130: 5a97 6c3f 4040 7e3f b795 803f 64c1 873f
00000140: 9ac7 2c3f f373 563f e925 7e3f 0ec8 403f
00000150: b46f 643f cf5f 843f a6b0 4b3f 81bd 543f
00000160: 8ffc 973f 264d 373f 31c7 8d3f 114f 633f
00000170: f97d 553f b965 5b3f 7d2c 983f 2181 613f
00000180: de5f 573f 99ee 833f d280 5d3f e923 5c3f
00000190: 41f7 763f 632c 623f e364 6d3f 3cb3 913f
000001a0: 84a8 a33f e3b4 693f 4639 7e3f 6109 6d3f
000001b0: 67e3 943f 1dfb 8f3f ac2d 923f ff8b 8a3f
000001c0: 500a 8e3f 70f4 853f 9f80 7f3f 646f 5d3f
000001d0: 02d5 613f 06dd 2c3f 4097 1d3f 644f 673f
000001e0: 0d60 873f e650 7c3f fd0a 793f a443 753f
000001f0: 39fa 833f 96f0 8d3f f4b1 a13f c524 783f

bn1.bias f4 [128]
-0.53274846 -0.18994324 -0.20897521 -0.43081188 -0.49342564 -0.25836924 -0.013809021 -0.49584904
-0.5236037 -0.34362468 -0.27461088 -0.32296225 0.042473752 -0.6208642 -0.4593693 -0.2765133
-0.300321 -0.10916724 -0.12347887 -0.5712937 -0.5556843 -0.09188039 -0.13957605 -0.27100563
-0.2793042 -0.12578768 -0.17499842 -0.100780874 -0.3809706 -0.19883013 -0.17349283 -0.22195804
-0.31258026 -0.12142235 -0.32356304 -0.3028476 -0.23302864 -0.32373416 0.035397157 -0.427876
-0.15455496 -0.25646284 -0.019949898 -0.34434408 -0.42283812 -0.06520974 -0.13682714 -0.40696865
-0.11244526 -0.51230365 -0.2784216 -0.21637774 -0.22596358 -0.20498085 -0.3700175 -0.050167378
-0.064174265 -0.60009766 -0.30896762 -0.2621616 -0.14996761 -0.1928178 -0.21292238 -0.1467619
-0.10063915 0.04354177 -0.33627358 -0.16616014 -0.19263418 -0.1908548 -0.33256328 -0.2642485
-0.3696034 -0.07235539 -0.36823425 -0.1907555 -0.1981974 -0.075627536 -0.34123352 -0.046113912
-0.23399748 -0.6930164 -0.29952443 -0.2993045 -0.14429192 -0.350635 -0.2783406 -0.12049567
-0.059341464 -0.36232015 -0.23726909 -0.24782522 -0.20722154 -0.11367832 -0.17934601 -0.1438242
-0.20919561 -0.25989744 -0.1295832 -0.5321804 -0.399618 -0.2871666 -0.20324285 -0.22987443
0.031258017 -0.24409588 -0.17738917 -0.15744081 -0.08593712 -0.12074865 -0.030764315 -0.042524166
-0.16494517 -0.32482937 -0.15701249 -0.18936089 -0.12803286 -0.2777854 -0.45697513 -0.17856741
-0.27849442 -0.07580744 -0.24320818 -0.16775683 -0.16416365 -0.2166626 -0.31653157 -0.09424672
00000000: 3462 08bf 7b80 42be 99fd 55be 6093 dcbe
00000010: 49a2 fcbe f948 84be 3b3f 62bc eddf fdbe
00000020: e40a 06bf 93ef afbe cc99 8cbe 4f5b a5be
00000030: f5f8 2d3d f5f0 1ebf 7432 ebbe 2793 8dbe
00000040: adc3 99be 1393 dfbd 7de2 fcbd 4e40 12bf
00000050: 5441 0ebf c92b bcbd 06ed 0ebe 40c1 8abe
00000060: f600 8fbe 7cce 00be c932 33be 3466 cebd
00000070: 940e c3be 209a 4bbe 1ba8 31be f848 63be
00000080: 850a a0be 48ac f8bd 0eaa a5be d70e 9bbe
00000090: 0f9f 6ebe 7cc0 a5be 9cfc 103d 9012 dbbe
000000a0: a843 1ebe 194f 83be f86d a3bc de4d b0be
000000b0: 3d7e d8be af8c 85bd 6a1c 0cbe 325e d0be
000000c0: b349 e6bd 5526 03bf 478d 8ebe 2092 5dbe
000000d0: ff62 67be 80e6 51be ef72 bdbe 4f7c 4dbd
000000e0: cc6d 83bd 00a0 19bf 0131 9ebe 0c3a 86be
000000f0: 1c91 19be 0872 45be 5308 5abe c048 16be
00000100: e61b cebd db58 323d 0d2c acbe e225 2abe
00000110: e541 45be 716f 43be bc45 aabe 944b 87be
00000120: a83c bdbe 102f 94bd 3389 bcbe 6955 43be
00000130: 42f4 4abe 9ce2 9abd 29b6 aebe f1e1 3cbd
00000140: 099d 6fbe 8669 31bf 445b 99be 703e 99be
00000150: 43c1 13be 6e86 b3be a982 8ebe 6fc6 f6bd
00000160: 0910 73bd 0782 b9be abf6 72be e5c5 7dbe
00000170: e231 54be 2ed0 e8bd 7ba6 37be a746 13be
00000180: 6037 56be 4711 85be 75b1 04be fa3c 08bf
00000190: bb9a ccbe 8007 93be e51e 50be 3464 6bbe
000001a0: 6808 003d 45f4 79be 82a5 35be 2a38 21be
000001b0: cdff afbd 114b f7bd 7205 fcbc d22d 2ebd
000001c0: 63e7 28be 0950 a6be e2c7 20be d2e7 41be
000001d0: 0c1b 03be e339 8ebe a5f8 e9be 60da 36be
000001e0: d296 8ebe ee40 9bbd 910b 79be 72c8 2bbe
000001f0: 841a 28be cddc 5dbe 6d10 a2be 6d04 c1bd

bn1.running_mean f4 [128]
0.40131047 -0.14213103 0.37375292 -0.4761342 -0.27538925 -0.230585 0.2483377 0.67940634
-0.4301021 -0.5144594 -0.10820819 -0.05828109 -0.4494611 0.48618236 -0.10264193 0.26718062
-0.7073689 -0.2025865 0.43232998 0.020860171 0.062748924 0.6624685 -0.053412452 -0.43654472
-0.52964133 -0.6846997 -0.09344547 0.11932048 -0.026545044 -0.033871606 -0.6705686 -0.49140772
-0.39035726 0.47124565 0.1521507 0.5869251 -0.5014035 -0.34922308 0.09146187 -0.2942625
-0.64998204 0.3936156 -0.3425682 0.13428938 -0.6893805 -0.18324669 -0.35020724 0.22797757
0.45519054 0.4885773 -0.6374233 0.16104096 0.46779922 -0.5060694 -0.115369454 -0.6286
0.28368613 0.23201782 -0.53168064 -0.27165028 -0.01555858 0.036071476 -0.11227591 -0.2548528
0.7025144 0.050290667 -0.6317262 -0.5930224 -0.358103 -0.042738255 0.6013127 -0.44129562
0.651445 -0.47316402 -0.19551036 0.14351253 0.64368904 -0.5188488 0.19663088 -0.44680312
-0.50277954 0.6445892 0.59280276 0.053630307 0.23674631 0.032816816 -0.29396176 -0.18904649
-0.24550514 0.50849336 -0.097634904 -0.070853464 0.55104536 0.6328442 -0.48534232 0.6327767
0.341711 -0.32122025 0.6756887 -0.5558787 0.4889172 0.5369856 0.55967814 -0.5242195
0.27386475 -0.10156375 -0.12692566 0.40922546 -0.4944037 -0.06429104 0.47610998 -0.429599
-0.08458438 -0.2873901 -0.3728409 -0.06514273 0.3350551 -0.18058914 0.59157896 -0.32055798
0.27704465 -0.44559902 0.03932578 -0.36299405 -0.054141443 -0.28521144 0.1369856 -0.47891918
00000000: 9178 cd3e cc8a 11be 8b5c bf3e ddc7 f3be
00000010: d2ff 8cbe 791e 6cbe 3d4c 7e3e 93ed 2d3f
00000020: 5836 dcbe 9cb3 03bf 419c ddbd 27b8 6ebd
00000030: c41f e6be e5ec f83e ef35 d2bd e6cb 883e
00000040: 2116 35bf d672 4fbe 5b5a dd3e f3e2 aa3c
00000050: 8282 803d 8997 293f 04c7 5abd ca82 dfbe
00000060: 9396 07bf 7b48 2fbf 5760 bfbd 4c5e f43d
00000070: fe74 d9bc f4bc 0abd 62aa 2bbf cb99 fbbe
00000080: e8dc c7be 1c47 f13e 65cd 1b3e b940 163f
00000090: fb5b 00bf 5ecd b2be 5c50 bb3d 93a9 96be
000000a0: 3965 26bf fc87 c93e 1965 afbe 2883 093e
000000b0: 3e7b 30bf 05a5 3bbe 5d4e b3be f472 693e
000000c0: bc0e e93e ce26 fa3e 2c2e 23bf ece7 243e
000000d0: 6183 ef3e c48d 01bf d246 ecbd eeeb 20bf
000000e0: 4f3f 913e 1496 6d3e 391c 08bf bf15 8bbe
000000f0: 6ae9 7ebc afbf 133d eaf0 e5bd 117c 82be
00000100: fcd7 333f 96fd 4d3d cfb8 21bf 51d0 17bf
00000110: 4759 b7be 4f0e 2fbd a1ef 193f 80f1 e1be
00000120: 19c5 263f 8e42 f2be de33 48be f3f4 123e
00000130: cec8 243f 46d3 04bf 9b59 493e 61c3 e4be
00000140: 29b6 00bf cc03 253f ecc1 173f 74ab 5b3d
00000150: a06d 723e ed6a 063d 2882 96be 6795 41be
00000160: b365 7bbe 9f2c 023f cff4 c7bd 9f1b 91bd
00000170: 4f11 0d3f 1402 223f ca7e f8be a7fd 213f
00000180: bff4 ae3e fb76 a4be eff9 2c3f 114e 0ebf
00000190: 5b53 fa3e e377 093f 1147 0f3f 4033 06bf
000001a0: 0038 8c3e a800 d0bd cdf8 01be 0086 d13e
000001b0: 7b22 fdbe 05ab 83bd b0c4 f33e 66f4 dbbe
000001c0: 933a adbd cc24 93be 01e5 bebe 8d69 85bd
000001d0: 588c ab3e 5cec 38be b871 173f 2d20 a4be
000001e0: ccd8 8d3e 8e25 e4be 1214 213d 5bda b9be
000001f0: 6bc3 5dbd 3c07 92be f445 0c3e e534 f5be

bn1.running_var f4 [128]
0.077753134 0.30082273 0.20637746 0.2734228 0.30547595 0.4621843 0.23483051 0.18196978
0.2785553 0.14780398 0.10176811 0.28234744 0.46238986 0.21327873 0.08449941 0.07978729
0.101493716 0.15421961 0.34340343 0.42396605 0.4587567 0.09210386 0.10201625 0.01359546
0.19900881 0.40318963 0.1811522 0.16347694 0.18337972 0.03627821 0.23026711 0.090633
0.41000298 0.37315384 0.2558108 0.15341075 0.34351164 0.14831203 0.17446876 0.087058194
0.20042616 0.024021331 0.53007466 0.10255598 0.120965086 0.25252658 0.38789305 0.05783342
0.35400277 0.13734874 0.16999963 0.15431562 0.08624288 0.2977066 0.25427532 0.30038688
0.010553435 0.24099107 0.22363804 0.18869051 0.18864101 0.16973004 0.17457594 0.37417382
0.058639172 0.13898724 0.09896322 0.1858875 0.2961683 0.21935323 0.3747324 0.36699402
0.16666912 0.13394839 0.10296238 0.13706118 0.16652827 0.17087677 0.09526636 0.08320137
0.2972603 0.42166832 0.24610054 0.12936495 0.14513753 0.3058008 0.23074941 0.060307115
0.12341462 0.45183998 0.3288681 0.35935858 0.14081118 0.1545421 0.23373829 0.25040317
0.3191291 0.1707787 0.26925796 0.24591415 0.03246398 0.07748446 0.22488105 0.050453648
0.3288717 0.2937919 0.19759212 0.2702178 0.24009645 0.3524489 0.21623419 0.1905516
0.14144208 0.09140102 0.39757627 0.086833976 0.025628814 0.31773227 0.037933275 0.25553817
0.43625352 0.2386129 0.31679055 0.37441725 0.046863142 0.12314535 0.19848938 0.20021312
00000000: 093d 9f3d 7005 9a3e 9d54 533e 13fe 8b3e
00000010: 5867 9c3e 6ca3 ec3e 6977 703e 4956 3a3e
00000020: cd9e 8e3e ed59 173e cd6b d03d d88f 903e
00000030: 5dbe ec3e bd65 5a3e 070e ad3d 8567 a33d
00000040: f0db cf3d bfeb 1d3e 93d2 af3e 1412 d93e
00000050: 28e2 ea3e f3a0 bc3d e5ed d03d 7ebf 5e3c
00000060: f7c8 4b3e df6e ce3e f67f 393e 8066 273e
00000070: e5c7 3b3e 7698 143d 24cb 6b3e cb9d b93d
00000080: e9eb d13e 050e bf3e a2f9 823e b517 1d3e
00000090: c2e0 af3e 1cdf 173e f0a7 323e 914b b23d
000000a0: 843c 4d3e 62c8 c43c f9b2 073f df08 d23d
000000b0: 8bbc f73d 2a4b 813e eb99 c63e bce2 6c3d
000000c0: da3f b53e 26a5 0c3e 6214 2e3e ea04 1e3e
000000d0: 1ba0 b03d 006d 983e 6030 823e 4fcc 993e
000000e0: 51e8 2c3c 5dc6 763e 5f01 653e 1638 413e
000000f0: 1c2b 413e b6cd 2d3e 09c4 323e b693 bf3e
00000100: a12f 703d ac52 0e3e 3bad ca3d 4b59 3e3e
00000110: 5fa3 973e 229e 603e eddc bf3e a4e6 bb3e
00000120: 4fab 2a3e c429 093e f1dd d23d c459 0c3e
00000130: 6386 2a3e 52fa 2e3e 021b c33d 7b65 aa3d
00000140: 8132 983e e9e4 d73e c801 7c3e 3f78 043e
00000150: ef9e 143e ec91 9c3e 9349 6c3e 9804 773d
00000160: cec0 fc3d 9257 e73e 6661 a83e d9fd b73e
00000170: ce30 103e 4940 1e3e 1759 6f3e d834 803e
00000180: e464 a33e 9de0 2e3e 2edc 893e ebd0 7b3e
00000190: f3f8 043d 2cb0 9e3d 3847 663e 7ca8 4e3d
000001a0: df61 a83e e46b 963e 9755 4a3e fd59 8a3e
000001b0: d8db 753e 2f74 b43e 7f6c 5d3e f51f 433e
000001c0: 31d6 103e 7530 bb3d 1e8f cb3e 03d6 b13d
000001d0: 85f3 d13c cead a23e ec5f 1b3d e6d5 823e
000001e0: 9f5c df3e f156 743e 5f32 a23e 9eb3 bf3e
000001f0: 91f3 3f3d a133 fc3d cd40 4b3e ab04 4d3e

fc2.weight f4 [256, 128]
0.11378557 0.023568345 -0.09282986 0.20791507 -0.14065099 -0.0857553 0.16811839 0.30462605
-0.099187024 0.09288765 0.15698591 0.07554921 0.20542248 -0.124849305 0.12869413 0.14698108
0.12805676 0.06751208 0.2128737 0.07445161 -0.13850552 0.2410861 -0.16682908 0.13147947
-0.1442923 0.04130486 0.048118405 0.0084281415 0.13137738 -0.018346205 0.11234413 0.1804302
0.19500305 -0.050378438 0.25664115 -0.13970715 -0.03550015 0.15708406 0.07843963 0.009149285
0.098784044 0.0821642 0.08622486 0.104505345 -0.18879446 0.13470656 0.15214664 0.014106388
0.25987533 0.071454786 -0.3680663 0.06811366 -0.07641655 0.03650024 0.19056816 0.14612445
0.24830823 0.16264634 -0.15655404 0.018256895 -0.0858581 -0.053811476 -0.015662445 -0.11052056
0.22951153 -0.07206188 0.06691873 0.16912061 -0.18298356 -0.044122998 0.19250208 0.15055315
0.14837727 0.1421106 0.032102488 0.16390757 0.1698567 -0.23846015 0.10400123 0.18198085
0.21665366 0.16306476 0.09802924 0.02749967 0.12707272 0.01193231 0.116622955 -0.37943164
0.019464439 -0.006777098 -0.13179512 0.0367756 0.06925287 0.066938914 0.122153744 0.22062439
0.1583949 -0.18416557 -0.1288924 0.23329778 -0.18810584 0.105779946 0.11293501 -0.24491785
0.32860082 0.07392497 0.0123557495 0.142863 0.11212869 -0.06817412 -0.015658475 0.15970248
-0.054756094 0.016050495 0.067176506 0.16183965 -0.043859206 0.15248993 0.17007534 0.102856465
0.08332292 -0.25776964 -0.009426575 0.013381301 0.04363567 0.059839435 -0.08629277 0.029460572
-0.14189598 0.2484164 -0.009663112 -0.052385412 0.24419312 0.096330486 -0.018107126 0.10945049
0.29434335 0.05332152 -0.1040044 0.016572295 -0.016358454 0.21413897 0.06872694 0.07282385
0.08891728 0.0008494188 0.096053965 0.20933262 0.28182563 -0.15312208 0.006591202 -0.1837942
0.13127162 -0.03307325 0.37545404 0.02797772 0.20939006 0.036634855 0.07692414 0.034526307
0.19467293 0.069058165 0.019273838 0.1516522 0.014729121 0.067424275 0.13088372 0.017537486
-0.1848075 -0.16491188 0.17598689 0.12405428 0.09997092 0.053275798 0.057422057 0.06774496
0.14059988 -0.09132378 0.15781216 0.2404984 -0.04096492 0.25859633 -0.007496159 0.1660426
-0.06582264 0.0072881198 0.08200107 -0.07480024 0.09975865 -0.223741 0.0081297625 0.10249822
0.089352235 0.004891535 0.1976836 0.27593404 0.1919612 -0.06462864 -0.028621798 -0.15214422
0.18826789 -0.08890563 -0.072031975 -0.19118871 0.16566263 -0.09538515 -0.0875675 0.19679654
0.10333445 -0.03155356 0.3304637 -0.2881118 -0.16484849 0.093008205 -0.039979935 0.22609083
0.15685225 -0.117374815 0.21151277 0.18685332 -0.109562166 0.04155513 -0.11665019 0.19103529
0.11331696 0.068925045 0.074111894 0.043286175 0.25375327 -0.085506506 -0.21281713 -0.19288042
0.010142585 0.061898522 0.1217298 0.052051544 -0.09188235 0.11525451 0.16324538 0.18830255
0.0490926 0.22376098 -0.29407132 -0.14965329 -0.00746306 -0.1692119 -0.03890264 0.15284514
-0.16310465 0.07090265 -0.17461912 -0.011081651 -0.007625823 0.26775226 0.2043547 -0.060364436
00000000: 6908 e93d 6712 c13c 951d bebd b0e7 543e
00000010: d006 10be 7aa0 afbd 3a27 2c3e f2f7 9b3e
00000020: 9122 cbbd e13b be3d eac0 203e 8bb9 9a3d
00000030: 455a 523e feb0 ffbd 65c8 033e 3582 163e
00000040: 5021 033e c643 8a3d 90fb 593e 167a 983d
00000050: 64d4 0dbe 46df 763e 3ed5 2abe 8ea2 063e
00000060: 5cc1 13be 492f 293d ce17 453d 3016 0a3c
00000070: cb87 063e c84a 96bc ae14 e63d b2c2 383e
00000080: e1ae 473e 9f59 4ebd 7866 833e 640f 0fbe
00000090: 9b68 11bd a5da 203e f5a4 a03d e2e6 153c
000000a0: 4a4f ca3d b445 a83d a996 b03d e606 d63d
000000b0: 5653 41be 84f0 093e 54cc 1b3e 7b1e 673c
000000c0: 610e 853e e356 923d 3073 bcbe 2d7f 8b3d
000000d0: 4880 9cbd 4781 153d 4d24 433e a6a1 153e
000000e0: 8344 7e3e c38c 263e b44f 20be 7c8f 953c
000000f0: 5fd6 afbd 6c69 5cbd 874e 80bc 9a58 e2bd
00000100: 1205 6b3e 2e95 93bd b00c 893d f42d 2d3e
00000110: 0b60 3bbe 51ba 34bd 441f 453e 9b2a 1a3e
00000120: 36f0 173e 7185 113e e67d 033d 63d7 273e
00000130: eaee 2d3e e62e 74be 99fe d43d 3059 3a3e
00000140: 75da 5d3e 73fa 263e 8ec3 c83d fd46 e13c
00000150: 5a1f 023e bc7f 433c 04d8 ee3d dd44 c2be
00000160: e373 9f3c 6b12 debb 4df5 06be 03a2 163d
00000170: 73d4 8d3d 4517 893d be2b fa3d 5ceb 613e
00000180: 4632 223e e695 3cbe 5ffc 03be 9de5 6e3e
00000190: d19e 40be 28a3 d83d 784a e73d bfcb 7abe
000001a0: 5e3e a83e fa65 973d c56f 4a3c ae4a 123e
000001b0: baa3 e53d df9e 8bbd 3446 80bc 0c89 233e
000001c0: ed47 60bd 547c 833c d693 893d 4bb9 253e
000001d0: b6a5 33bd 5226 1c3e 3b28 2e3e 69a6 d23d
000001e0: 35a5 aa3d 62fa 83be ec71 1abc 3f3d 5b3c
000001f0: 51bb 323d 321a 753d 44ba b0bd 4c57 f13c
00000200: 2e4d 11be de60 7e3e 0852 1ebc 1692 56bd
00000210: c30d 7a3e eb48 c53d 6555 94bc 9427 e03d
00000220: 2cb4 963e ab67 5a3d 4200 d5bd 9fc2 873c
00000230: 2a02 86bc 3f47 5b3e b6c0 8c3d ac24 953d
00000240: 431a b63d 88ab 5e3a f1b7 c43d 4a5b 563e
00000250: 734b 903e 09cc 1cbe 03fb d73b 8c34 3cbe
00000260: 116c 063e d177 07bd 833b c03e 8831 e53c
00000270: 596a 563e 6e0e 163d 678a 9d3d 756b 0d3d
00000280: 5758 473e 5e6e 8d3d 2be4 9d3c b74a 1b3e
00000290: 6952 713c bd15 8a3d 6206 063e c6aa 8f3c
000002a0: 2d3e 3dbe a9de 28be e835 343e 2c10 fe3d
000002b0: 8ebd cc3d b937 5a3d 6433 6b3d dfbd 8a3d
000002c0: 6af9 0f3e f607 bbbd 8399 213e 3645 763e
000002d0: d5ca 27bd bd66 843e 57a2 f5bb 1207 2a3e
000002e0: 05ce 86bd 2ed1 ee3b 2df0 a73d de30 99bd
000002f0: 434e cc3d 5c1c 65be b232 053c 96ea d13d
00000300: 4efe b63d 2b49 a03b 926d 4a3e 3a47 8d3e
00000310: 7a91 443e 055c 84bd 4378 eabc b2cb 1bbe
00000320: 4cc9 403e 2814 b6bd 8085 93bd f9c6 43be
00000330: 77a3 293e 4a59 c3bd 9756 b3bd 0885 493e
00000340: 03a1 d33d 4e3e 01bd 8a32 a93e 6483 93be
00000350: 0bce 28be 167b be3d 00c2 23bd 5b84 673e
00000360: e09d 203e 3562 f0bd ce96 583e 7a56 3f3e
00000370: 2162 e0bd b635 2a3d 4be6 eebd c19e 433e
00000380: b912 e83d 9328 8d3d fac7 973d d84c 313d
00000390: f3eb 813e 091e afbd bcec 59be 7282 45be
000003a0: 162d 263c 4e89 7d3d 794d f93d 0034 553d
000003b0: d02c bcbd 8e0a ec3d cc29 273e 62d2 403e
000003c0: 5215 493d 9921 653e 8490 96be b63e 19be
000003d0: af8c f4bb e245 2dbe 6058 1fbd 7083 1c3e
000003e0: e804 27be 6935 913d 5bcf 32be d08f 35bc
000003f0: 0ae2 f9bb d316 893e 5c42 513e b340 77bd

fc2.bias f4 [256]
-0.051085062 0.07479244 0.04043309 0.03357122 0.022138136 0.011699411 -0.05025624 0.06136139
0.04689568 -0.039499603 0.052927077 -0.061651718 0.013866854 0.04916655 0.021912271 0.08071318
-0.017321032 -0.07568435 0.030102225 0.0471561 0.07076249 0.043401904 -0.03050546 -0.022040645
-0.07641549 0.029463414 0.044137318 -0.08786021 -0.08827237 -0.005994243 0.07204233 -0.009492827
0.037373655 0.030525858 -0.0811087 -0.022009734 0.0758782 -0.024414988 -0.042186547 0.029559745
-0.04723089 0.08187599 -0.03730487 0.043426637 -0.009162188 0.07707132 0.06878641 -0.045671593
-0.074460834 0.05422946 0.050234713 0.076871425 0.08343813 -0.039142143 0.004573279 -0.0001709195
0.054359343 0.062453773 0.026802931 0.028046621 -0.0820628 -0.08354246 -0.0022981968 -0.08132297
0.06335078 0.021363417 0.0030585516 0.036563426 -0.02668563 -0.061072752 0.06899804 3.2670643e-05
-0.055713046 -0.085589364 0.006794835 -0.051604178 0.03148078 0.06756655 0.064007156 0.01563294
0.040412523 -0.07000179 0.035787437 0.07066099 0.06699722 0.05002549 0.0033078664 0.015990665
0.0004753731 0.05558551 -0.004667375 -0.01839973 0.052689143 -0.008246233 -0.08010875 0.058212638
0.006278885 0.014883981 0.020988332 -0.026165474 0.06304635 0.08390819 -0.023198111 -0.025621062
-0.055421773 -0.07233293 0.039539494 -0.08346827 0.024127217 0.082044795 0.004766721 0.0070768497
-0.023638137 0.019299237 -0.04750698 -0.062850825 -0.012881525 -0.045784514 0.03672322 -0.0703823
0.0025809882 -0.055717528 -0.04109519 0.013902799 0.051331315 -0.051463228 -0.07178093 0.0029507827
-0.058930054 -0.047169503 0.05549484 0.040609226 0.039211072 0.061340377 0.008230453 0.008779927
-0.072377086 0.08781683 0.0015646489 -0.081788786 0.051528312 -0.066440515 0.08299363 -0.028130835
0.021495966 0.08511798 0.056972697 -0.019321863 0.05490613 0.01656438 0.02899679 0.06164623
-0.045049664 -0.064016715 0.011341189 -0.0070047774 0.060466863 -0.0081466 -0.08140888 0.064985834
0.018905444 0.07811025 0.021551318 -0.057135355 0.06803099 -0.08736713 0.0029829196 -0.056157455
0.079896346 -0.025931135 -0.060601775 -0.05556784 -0.004624454 -0.017728487 -1.2986584e-05 -0.034977738
-0.0719174 -0.0010564084 0.004555624 0.067808524 -0.06306714 0.014625465 -0.0040206327 -0.07509787
-0.07588843 0.055905066 0.084805645 -0.04915829 -0.039221853 -0.012071353 -0.021099932 -0.002957772
-0.020726085 -0.036719102 0.022630569 0.05867528 -0.07022503 -0.034650147 0.054055322 0.08170257
-0.0674597 -0.059058733 -0.042399205 0.00018890592 -0.0072940597 0.0815571 0.042868875 -0.05556105
0.011144723 0.00030536173 0.057587136 -0.0786385 0.05411132 0.07292145 0.02459319 -0.038806375
0.036791407 -0.06517902 0.035274446 -0.05556097 -0.06434735 0.013938666 -0.07649768 0.08012749
0.013069701 0.0055980966 0.08760685 -0.039911434 0.07372212 0.025399076 0.016525483 0.07941799
0.08714152 0.0048413724 0.061877575 -0.033090305 -0.01181927 -0.021636255 0.050479006 -0.04328955
0.026671777 -0.07522682 -0.07435813 0.08505659 0.058150403 0.033935368 0.05833679 -0.07512913
-0.02499679 0.019420259 0.066341504 -0.028735325 0.011845676 -0.01954977 0.08124289 0.010167142
00000000: 923e 51bd c72c 993d 2b9d 253d fa81 093d
00000010: 095b b53c e3ae 3f3c 7dd9 4dbd 1556 7b3d
00000020: af15 403d 56ca 21bd 10ca 583d 8386 7cbd
00000030: cd31 633c dd62 493d 5d81 b33c f44c a53d
00000040: d6e4 8dbc 6600 9bbd f198 f63c c126 413d
00000050: edeb 903d 32c6 313d 96e6 f9bc 958e b4bc
00000060: b97f 9cbd 425d f13c 55c9 343d 0ef0 b3bd
00000070: 25c8 b4bd 5b6b c4bb ee8a 933d cd87 1bbc
00000080: 1e15 193d 5d11 fa3c 511c a6bd c24d b4bc
00000090: 0866 9b3d f101 c8bc cdcb 2cbd 4727 f23c
000000a0: 2d75 41bd 99ae a73d fecc 18bd 21e0 313d
000000b0: 001d 16bc 91d7 9d3d e4df 8c3d 2312 3bbd
000000c0: ec7e 98bd b61f 5e3d eac2 4d3d c46e 9d3d
000000d0: 9ce1 aa3d 8353 20bd 72db 953b db38 33b9
000000e0: e7a7 5e3d 87cf 7f3d d291 db3c 07c2 e53c
000000f0: 8b10 a8bd 4f18 abbd 589d 16bb a88c a6bd
00000100: 0ebe 813d 5502 af3c fb71 483b 88c3 153d
00000110: d39b dabc 6c27 7abd d84e 8d3d d607 0938
00000120: 5d33 64bd 7a49 afbd 35a7 de3b e75e 53bd
00000130: fef1 003d 5560 8a3d 2f16 833d a710 803c
00000140: 9a87 253d 195d 8fbd d995 123d b6b6 903d
00000150: d735 893d 87e7 4c3d cac8 583b dbfe 823c
00000160: 7f3b f939 a2ad 633d c7f0 98bb 08bb 96bc
00000170: 92d0 573d 351b 07bc 0e10 a4bd 6070 6e3d
00000180: 1bbf cd3b f1db 733c b9ef ab3c fa58 d6bc
00000190: 721e 813d 0fd8 ab3d f709 bebc 43e3 d1bc
000001a0: f101 63bd 4a23 94bd 2af4 213d 6af1 aabd
000001b0: 71a6 c53c 1a07 a83d 2732 9c3b ebe4 e73b
000001c0: c4a4 c1bc 6f19 9e3c ae96 42bd efb7 80bd
000001d0: 080d 53bc 8b88 3bbd 166b 163d 9824 90bd
000001e0: cc25 293b 1038 64bd 6e53 28bd 91c8 633c
000001f0: c940 523d 1bcb 52bd e101 93bd eb61 413b
00000200: a460 71bd cf34 41bd 8f4e 633d dc55 263d
00000210: ca9b 203d 0c40 7b3d 06d9 063c afd9 0f3c
00000220: 703a 94bd 4fd9 b33d e814 cd3a e180 a7bd
00000230: 5a0f 533d f711 88bd 90f8 a93d a372 e6bc
00000240: 4f18 b03c 5652 ae3d 345c 693d e248 9ebc
00000250: 40e5 603d 06b2 873c ad8a ed3c c280 7c3d
00000260: ff85 38bd 321b 83bd 65d0 393c 5588 e5bb
00000270: 1aac 773d 5179 05bc b3b9 a6bd 4b17 853d
00000280: 97df 9a3c 44f8 9f3d 648c b03c c306 6abd
00000290: d553 8b3d 8aed b2bd 167d 433b 5c05 66bd
000002a0: b2a0 a33d 886d d4bc 9139 78bd 1a9b 63bd
000002b0: bb88 97bb 553b 91bc f4e0 59b7 d144 0fbd
000002c0: 6e49 93bd 2f77 8aba 5847 953b 32df 8a3d
000002d0: 5829 81bd a59f 6f3c 83bf 83bb e9cc 99bd
000002e0: 656b 9bbd b6fc 643d 95ae ad3d 345a 49bd
000002f0: 18a7 20bd edc6 45bc c4d9 acbc 2ed7 41bb
00000300: c0c9 a9bc c566 16bd be63 b93c 7e55 703d
00000310: 24d2 8fbd 50ed 0dbd 1d69 5d3d ad53 a73d
00000320: 5028 8abd 92e7 71bd caaa 2dbd 0c15 4639
00000330: 0203 efbb 6907 a73d 4697 2f3d fc93 63bd
00000340: 5b98 363c f518 a039 7de0 6b3d 390d a1bd
00000350: d5a3 5d3d d757 953d a877 c93c 6ff3 1ebd
00000360: 96b2 163d 947c 85bd f07b 103d e693 63bd
00000370: 8bc8 83bd 015f 643c d1aa 9cbd e219 a43d
00000380: 4d22 563c 3d70 b73b 386b b33d 2c7a 23bd
00000390: 9ffb 963d b911 d03c 7360 873c e6a5 a23d
000003a0: 4177 b23d 60a4 9e3b 5773 7d3d b389 07bd
000003b0: 9da5 41bc 843e b1bc 13c3 4e3d 6250 31bd
000003c0: c57e da3c 8510 9abd 1349 98bd 2632 ae3d
000003d0: 1e2f 6e3d d0ff 0a3d 8ff2 6e3d 4ddd 99bd
000003e0: 11c6 ccbc 3c17 9f3c 0ede 873d 5866 ebbc
000003f0: 5e14 423c d726 a0bc ac62 a63d 1694 263c

bn2.weight f4 [256]
1.050167 0.9014498 0.9440306 1.0647063 0.9828368 1.1001047 0.8427136 1.308953
0.8309101 1.0548426 0.66878086 0.7858444 1.4078891 0.8141752 1.2623652 1.0923129
1.2289006 0.96924525 0.69866127 1.0582681 1.1280109 0.99386156 0.7261419 1.2027478
0.92826897 1.0475864 0.9530085 0.8703741 1.0021968 1.0901337 1.2206912 0.8920405
0.9319359 1.2334422 1.2379173 0.8708781 0.97298473 0.95872396 1.0311444 1.0534666
0.92849255 0.8929543 1.2043813 1.117418 1.1681083 0.9703595 1.0131919 0.9492185
0.9024778 0.83943975 0.8946299 1.0088813 1.0048053 1.0262975 1.1387223 1.0743966
0.9542873 0.9897374 1.2000288 1.1938628 1.0764885 0.91744465 0.70900613 0.82409835
1.0598295 1.0099021 0.9375917 1.1174152 0.86347604 0.8432577 0.7203796 1.0411187
1.0493604 0.9782487 1.0475183 1.0037341 0.68119 1.1246725 1.1312367 1.1785154
1.014432 0.9992641 1.0728883 1.097004 0.94084 0.79420805 0.8987019 0.76686496
1.2407784 0.9243584 0.83534235 1.0318079 1.1677134 0.9613388 0.97859514 1.1726987
0.75375473 0.9196703 0.71069545 1.0333219 1.1692456 0.94411117 0.8185798 0.82436585
1.145008 1.1383592 1.1837968 1.0240729 0.8497174 0.91157067 1.1284984 0.8347145
0.7607232 0.9997977 1.0286046 0.8896505 0.8367409 0.9777338 1.073769 0.6651957
1.139856 1.0579872 0.9685789 0.97170204 0.863002 0.95967126 0.9911794 1.0166786
0.8810761 0.7887957 1.1244612 1.0018096 1.0057702 1.1081795 1.006263 0.8820974
1.0577791 0.95234656 1.0342034 0.9444465 1.1095942 1.0738391 0.88948476 0.87344885
0.9067353 0.8439291 1.2513386 1.1206334 1.1755297 1.225706 0.9527034 1.190122
0.9467096 0.7488381 0.9394045 1.0980649 1.2458124 0.8873598 0.9325523 1.0924151
1.1444188 0.90694433 0.9554647 0.8039434 0.96083546 1.2222451 0.8614456 0.99080527
0.8634133 1.085319 0.8318265 0.8538335 0.80436206 1.1360924 0.99587405 1.008384
0.68386954 0.82868403 1.1204505 1.0391536 0.952904 1.0835536 0.82940435 0.81744486
1.0767868 1.1361407 1.3078359 1.1372985 0.80242765 0.6643669 1.0512899 1.1773455
1.2785187 0.641079 0.94810057 0.94846225 0.8062365 0.90856 1.0006083 1.2434233
1.0692303 0.941879 1.1218023 0.95446926 0.856649 1.0569887 1.0124528 0.7745336
1.0357177 0.90935194 0.9013363 1.3203856 1.2808783 1.1530558 0.9258261 0.85234034
1.1413935 0.6848696 1.3770047 0.9983404 1.1361158 1.0819917 1.299692 1.067596
1.2416795 1.1119399 1.0992752 1.0293219 0.83582735 1.1137459 1.0811679 0.88566726
1.0181147 1.0033263 1.1518302 0.8869561 0.8914363 0.8323788 1.2043374 0.70801127
1.1401918 0.9313288 0.82044595 1.105275 0.8946757 1.266753 1.048353 0.83497924
0.8525396 0.9536453 1.1127349 1.0186536 0.9326662 0.74650085 1.1344314 0.8617339
00000000: df6b 863f 6ac5 663f fdab 713f 4c48 883f
00000010: 319b 7b3f 3bd0 8c3f 14bc 573f c68b a73f
00000020: 86b6 543f 1505 873f 3935 2b3f 192d 493f
00000030: b635 b43f c96d 503f 2f95 a13f e9d0 8b3f
00000040: 9d4c 9d3f 7520 783f 77db 323f 5475 873f
00000050: a962 903f b66d 7e3f 70e4 393f a4f3 993f
00000060: 09a3 6d3f 5017 863f 5df8 733f d6d0 5e3f
00000070: fc47 803f 8089 8b3f 9c3f 9c3f c45c 643f
00000080: 5a93 6e3f 6fe1 9d3f 1374 9e3f def1 5e3f
00000090: 8715 793f ef6e 753f 8afc 833f fed7 863f
000000a0: b0b1 6d3f a798 643f 2b29 9a3f 8e07 8f3f
000000b0: 9384 953f 7b69 783f 46b0 813f fcff 723f
000000c0: c908 673f 86e5 563f 7706 653f 0623 813f
000000d0: 769d 803f b75d 833f a7c1 913f d485 893f
000000e0: 2c4c 743f 6e5f 7d3f 8b9a 993f 7fd0 983f
000000f0: 60ca 893f a7dd 6a3f 6d81 353f 1cf8 523f
00000100: 7ea8 873f 7944 813f 0206 703f 7607 8f3f
00000110: c40c 5d3f bddf 573f cc6a 383f 6143 853f
00000120: 7151 863f 826e 7a3f 1415 863f 5c7a 803f
00000130: 7862 2e3f 45f5 8f3f 5dcc 903f 98d9 963f
00000140: e8d8 813f c6cf 7f3f 6754 893f a16a 8c3f
00000150: e4da 703f 3851 4b3f 5411 663f 4351 443f
00000160: d4d1 9e3f c1a2 6c3f ffd8 553f 4812 843f
00000170: a277 953f 4d1a 763f 3685 7a3f fe1a 963f
00000180: 12f6 403f 836f 6b3f 23f0 353f e443 843f
00000190: d7a9 953f 45b1 713f 728e 513f a409 533f
000001a0: 9f8f 923f c1b5 913f a786 973f d214 833f
000001b0: 1487 593f b25c 693f a372 903f d9af 553f
000001c0: c1be 423f bef2 7f3f 51a9 833f 23c0 633f
000001d0: a734 563f c34c 7a3f 4371 893f 444a 2a3f
000001e0: cde6 913f 206c 873f c9f4 773f 77c1 783f
000001f0: b3ed 5c3f 04ad 753f efbd 7d3f 8622 823f
00000200: 348e 613f 84ee 493f 58ee 8f3f 4c3b 803f
00000210: 14bd 803f d3d8 8d3f 3acd 803f 23d1 613f
00000220: 4e65 873f fccc 733f c760 843f 3fc7 713f
00000230: 2f07 8e3f 8f73 893f 46b5 633f 589a 5f3f
00000240: ce1f 683f bd0b 583f dd2b a03f ea70 8f3f
00000250: c277 963f efe3 9c3f 5fe4 733f eb55 983f
00000260: 8f5b 723f dbb3 3f3f d07c 703f 648d 8c3f
00000270: c876 9f3f 032a 633f bfbb 6e3f 42d4 8b3f
00000280: 517c 923f 812d 683f 5699 743f 3ccf 4d3f
00000290: 50f9 753f 8772 9c3f b387 5c3f 6aa5 7d3f
000002a0: a708 5d3f bceb 8a3f 95f2 543f d594 5a3f
000002b0: acea 4d3f 7a6b 913f 9af1 7e3f ba12 813f
000002c0: 1312 2f3f a324 543f ec6a 8f3f fc02 853f
000002d0: 84f1 733f e2b1 8a3f d853 543f 1144 513f
000002e0: 26d4 893f 0f6d 913f 2b67 a73f ff92 913f
000002f0: e66b 4d3f f313 2a3f ab90 863f 42b3 963f
00000300: 80a6 a33f c11d 243f b8b6 723f 6cce 723f
00000310: 8465 4e3f 6397 683f ef13 803f 7f28 9f3f
00000320: 8adc 883f fb1e 713f 3897 8f3f 1958 743f
00000330: 594d 5b3f 684b 873f 0e98 813f d647 463f
00000340: 6692 843f 4acb 683f fabd 663f 6502 a93f
00000350: d2f3 a33f 5597 933f f002 6d3f fa32 5a3f
00000360: 2f19 923f 9d53 2f3f b141 b03f 3d93 7f3f
00000370: 3e6c 913f b47e 8a3f 4f5c a63f fca6 883f
00000380: 5bef 9e3f 0c54 8e3f 0db5 8c3f d2c0 833f
00000390: c8f8 553f 3a8f 8e3f b663 8a3f 17bb 623f
000003a0: 9551 823f ff6c 803f 2c6f 933f 8e0f 633f
000003b0: 2b35 643f c716 553f ba27 9a3f 3a40 353f
000003c0: cef1 913f 906b 6e3f bf08 523f a779 8d3f
000003d0: 7709 653f f624 a23f 6e30 863f 33c1 553f
000003e0: 0940 5a3f 1922 743f 196e 8e3f 3e63 823f
000003f0: 36c3 6e3f ae1a 3f3f 0c35 913f 989a 5c3f

bn2.bias f4 [256]
-0.36052185 -0.23898973 -0.13129388 -0.2721773 -0.3638742 -0.13492256 -0.114658125 -0.2330668
-0.22660987 -0.06938178 -0.22558829 -0.28902084 -0.17859086 -0.25612825 -0.4180117 -0.09327251
-0.19949713 -0.003016465 -0.3572413 -0.25800496 -0.17308755 -0.15248981 -0.3518318 -0.21757157
-0.11570845 -0.21713546 -0.076742746 -0.22935514 -0.19605921 -0.08481186 -0.09737466 -0.36830598
-0.11821466 -0.15885103 -0.29537615 -0.3403271 -0.2823705 -0.065090224 -0.31829634 -0.3206128
-0.23782168 -0.15152396 -0.18172486 -0.34148076 -0.29946142 -0.18800697 -0.07795838 -0.17148663
-0.08394491 -0.3885905 -0.16000803 -0.01957494 -0.2138075 -0.26756772 -0.06082347 -0.15490697
-0.2678351 -0.15657608 -0.05814441 -0.23194326 -0.16915493 -0.1823177 -0.3306234 -0.046486713
-0.32377723 -0.21796355 -0.1649587 -0.16508786 -0.2411625 -0.2101335 -0.27568424 -0.31502768
-0.17496058 -0.05037555 -0.023159044 -0.111772545 -0.28265765 -0.08012801 -0.29047722 0.062319137
-0.15772799 -0.030869007 -0.3879691 -0.13171794 0.0144168455 -0.14366183 -0.16786551 -0.29828253
-0.27381402 -0.17737646 -0.08884031 -0.19330858 -0.20140587 -0.1725488 -0.34789187 -0.14975674
-0.2682137 -0.17560047 -0.40157962 0.010557488 -0.42501685 -0.0051978766 -0.09818112 -0.27862027
-0.131329 -0.27308306 -0.31360316 -0.31638715 -0.08698412 -0.27921748 -0.45243844 -0.19127902
-0.21286158 -0.35824823 -0.153455 -0.029079348 -0.29732075 -0.03815934 -0.19053936 -0.41965657
-0.42939323 -0.23913902 -0.25643694 -0.0787408 -0.13624345 -0.31748733 -0.45880044 -0.2813607
-0.11328935 -0.15912588 -0.08145021 -0.07226838 -0.23677509 -0.08053981 -0.22624648 -0.1495445
-0.3351377 -0.059003167 -0.21896553 0.0027573986 -0.106308535 -0.14730266 -0.29187 -0.2966877
-0.1268705 -0.13188602 -0.4030813 -0.53749275 -0.29667637 -0.26171198 -0.18752638 -0.18904732
-0.35167697 -0.33770445 -0.34499592 0.0031466365 -0.10072022 -0.17925276 -0.2808383 -0.2585039
-0.058333863 -0.24827197 -0.24054416 -0.09652732 -0.40567297 -0.023644958 -0.34494865 -0.20435978
-0.3551881 -0.27210984 -0.17722479 -0.074384406 -0.26843214 -0.26020524 -0.26112446 -0.20596153
-0.4156561 -0.19803995 -0.3005393 -0.4310254 -0.081183486 -0.122394584 -0.17253114 -0.2829902
-0.087860174 -0.14016983 -0.13704082 -0.2184808 -0.18665403 -0.20370746 -0.38946113 0.08114301
-0.19330235 -0.30936706 -0.2082866 -0.15105927 -0.19987434 -0.047125645 -0.18904787 0.014642177
-0.11039788 0.100955285 -0.14420822 -0.29378176 -0.2703625 -0.10308823 -0.082694285 -0.3009658
-0.3767034 -0.33831888 -0.21850592 -0.11996042 -0.12010601 -0.09959294 -0.10608894 -0.2790171
-0.06129413 -0.25601992 -0.053507145 -0.08752577 -0.22732376 -0.2536212 -0.2541561 -0.30317646
-0.054241937 -0.22979654 -0.10408519 -0.13843293 -0.25309902 -0.17514369 -0.25852188 -0.18071732
-0.1045638 -0.4841427 -0.09180582 -0.36959574 -0.17385413 -0.33496636 -0.2134726 -0.4288639
-0.16592148 -0.25121254 -0.13266027 -0.39464432 -0.30776384 -0.18906434 -0.24932319 -0.314403
-0.18844943 -0.057646584 0.021949362 -0.3518267 -0.24412818 -0.4384898 -0.27356294 -0.17207986
00000000: 5296 b8be b9b9 74be e771 06be d35a 8bbe
00000010: b84d babe 2429 0abe e1d1 eabd 10a9 6ebe
00000020: 6b0c 68be 0918 8ebd 9e00 67be 8afa 93be
00000030: 86e0 36be 3e23 83be a105 d6be a805 bfbd
00000040: fa48 4cbe e3af 45bb 55e8 b6be 3a19 84be
00000050: dd3d 31be 4a26 1cbe 4c23 b4be 15cb 5ebe
00000060: 8df8 ecbd c258 5ebe 4d2b 9dbd 13dc 6abe
00000070: bfc3 48be d7b1 adbd 5e6c c7bd 9a92 bcbe
00000080: 871a f2bd d8a9 22be 8b3b 97be 5b3f aebe
00000090: de92 90be 064e 85bd bdf7 a2be 5c27 a4be
000000a0: 8787 73be 1929 1bbe 1516 3abe 91d6 aebe
000000b0: 0253 99be e684 40be a5a8 9fbd 319a 2fbe
000000c0: 4feb abbd 56f5 c6be 25d9 23be a05b a0bc
000000d0: 5af0 5abe a3fe 88be 0822 79bd ef9f 1ebe
000000e0: af21 89be 7b55 20be d528 6ebd 8982 6dbe
000000f0: f336 2dbe 7eb1 3abe 7847 a9be da68 3ebd
00000100: 21c6 a5be d631 5fbe efea 28be cb0c 29be
00000110: 4df3 76be 3c2d 57be 7c26 8dbe 4f4b a1be
00000120: de28 33be 9856 4ebd 09b8 bdbc 01e9 e4bd
00000130: 81b8 90be 271a a4bd 6eb9 94be 5a42 7f3d
00000140: 7283 21be 00e1 fcbc e3a3 c6be 11e1 06be
00000150: a234 6c3c 161c 13be f0e4 2bbe 7db8 98be
00000160: 5a31 8cbe 2da2 35be e9f1 b5bd aff2 45be
00000170: 573d 4ebe a2b0 30be e21e b2be d559 19be
00000180: 4e53 89be 9cd0 33be d89b cdbe 50f9 2c3c
00000190: cf9b d9be f352 aabb 2f13 c9bd 51a7 8ebe
000001a0: 1c7b 06be 8bd1 8bbe 9890 a0be 7ffd a1be
000001b0: bb24 b2bd 98f5 8ebe 03a6 e7be a6de 43be
000001c0: 63f8 59be 506c b7be 4f23 1dbe d037 eebc
000001d0: 6d3a 98be f84c 1cbd c01c 43be 3add d6be
000001e0: 6ed9 dbbe dce0 74be b44b 83be db42 a1bd
000001f0: 6783 0bbe b38d a2be e4e7 eabe 820e 90be
00000200: 3f04 e8bd e5f1 22be 5ecf a6bd 7201 94bd
00000210: 2b75 72be 0ef2 a4bd 28ad 67be 3222 19be
00000220: 2b97 abbe 4ead 71bd 8038 60be 79b5 343b
00000230: 4ab8 d9bd 82d6 16be fc6f 95be 73e7 97be
00000240: 57ea 01be 210d 07be ac60 cebe 2099 09bf
00000250: f7e5 97be 1dff 85be ea06 40be 9f95 41be
00000260: 010f b4be 99e7 acbe 4ea3 b0be cd37 4e3b
00000270: 6746 cebd 098e 37be 0aca 8fbe a05a 84be
00000280: 7def 6ebd 023b 7ebe 3551 76be 1eb0 c5bd
00000290: 5eb4 cfbe 12b3 c1bc 1c9d b0be b143 51be
000002a0: 37db b5be fb51 8bbe 6a7a 35be da56 98bd
000002b0: f06f 89be 9f39 85be 1bb2 85be 94e7 52be
000002c0: e0d0 d4be fcca 4abe 4ae0 99be 5caf dcbe
000002d0: 8743 a6bd 03aa fabd 01ac 30be 17e4 90be
000002e0: 09f0 b3bd ae88 0fbe 6e54 0cbe 6eb9 5fbe
000002f0: 3c22 3fbe b098 50be 7367 c7be 4e2e a63d
00000300: 0df1 45be 5c65 9ebe 1549 55be 48af 1abe
00000310: dcab 4cbe d206 41bd c495 41be bee5 6f3c
00000320: 4918 e2bd a5c1 ce3d 52ab 13be 906a 96be
00000330: f46c 8abe ec1f d3bd 9f5b a9bd 3018 9abe
00000340: 45df c0be 2238 adbe 04c0 5fbe cfad f5bd
00000350: 24fa f5bd 62f7 cbbd 2845 d9bd 54db 8ebe
00000360: 8e0f 7bbd 0b15 83be 4f2a 5bbd b640 b3bd
00000370: 8fc7 68be a3da 81be c020 82be f239 9bbe
00000380: cb2c 5ebd c94f 6bbe 9e2a d5bd 5dc1 0dbe
00000390: 3296 81be de58 33be fb5c 84be f60d 39be
000003a0: 8c25 d6bd 8de1 f7be b104 bcbd a73b bdbe
000003b0: d106 32be b680 abbe 9098 5abe 0d94 dbbe
000003c0: 52e7 29be ee9e 80be 18d8 07be d20e cabe
000003d0: 3993 9dbe 159a 41be 944e 7fbe 6ef9 a0be
000003e0: e3f8 40be d31e 6cbd 26cf b33c a122 b4be
000003f0: bdfc 79be bc81 e0be 7110 8cbe b435 30be
